pretrained/buffer2_actor600ep.pth (torch, 528351 bytes, 6 tensors)

l1.weight f4 [400, 24]
0	0x3c950ad6	0.018193644
1	0xbe1add98	-0.15123594
2	0x3d5f2772	0.054480977
3	0x3dd3488e	0.10316573
4	0xbdfdbc10	-0.12389386
5	0x3da27195	0.0793182
6	0xbd5b29a7	-0.05350652
7	0x3d1e47a4	0.03864254
8	0x3c91c933	0.017796135
9	0x3c2ebccf	0.010665133
10	0x3d460b3a	0.04835055
11	0x3cec8547	0.028872145
12	0x3d82d0ae	0.06387459
13	0xbdb0cce9	-0.086328335
14	0xbdc4427b	-0.09582993
15	0xbdcb6a79	-0.099324174
16	0xbd525fb6	-0.05136081
17	0xbda77321	-0.08176256
18	0x3dc7a9db	0.09749194
19	0xbc8ebdc9	-0.017424481
20	0xbe20ba90	-0.15696168
21	0xbe5120b5	-0.20422633
22	0xbdeca11d	-0.115541674
23	0xbe319449	-0.17341723
24	0xbce83709	-0.028346555
25	0x3fb889d4	1.4417062
26	0x3f9b2a4b	1.2122282
27	0x3dce890e	0.10084735
28	0xbf8552a8	-1.041585
29	0x3e930461	0.28714278
30	0x3f3ea124	0.7446463
31	0x3e4a8875	0.19778617
32	0x3d0100ad	0.031494785
33	0xbef4db0e	-0.47823375
34	0xbdfdcb48	-0.123922884
35	0xbfa09400	-1.2545166
36	0x3d84c629	0.064831086
37	0xbec2a189	-0.38013867
38	0x3e5470b6	0.20746121
39	0x3cf7377a	0.03017782
40	0x3ea812cb	0.32826838
41	0x3d4005c8	0.046880513
42	0x3e94092f	0.28913257
43	0x3e121d29	0.14268936
44	0x3d25c234	0.04046841
45	0x3e6a5d45	0.22887142
46	0xbdbaad4e	-0.091150865
47	0x3d8d8768	0.06910592
48	0xbf06950c	-0.5257118
49	0xbee2e6cd	-0.44316712
50	0xbf0314cf	-0.51203626
51	0xbfc9de83	-1.577103
52	0xbdb1a0c2	-0.0867324
53	0xbe38f32c	-0.18061513
54	0x3f867a9e	1.050617
55	0x3e9c2bcf	0.30502173
56	0x3ef2d2ff	0.47426602
57	0x3d2a5a69	0.041590128
58	0xbd044de6	-0.032300852
59	0xbe92124e	-0.2852959
60	0x3d6a42e4	0.057192698
61	0x3f963339	1.1734382
62	0xbe4c9e98	-0.19982374
63	0xbe12aae8	-0.14323008
64	0xbee251a7	-0.4420292
65	0xbebb4247	-0.36574003
66	0xbeaa4d7b	-0.33262238
67	0xbe93fdd6	-0.289046
68	0xbeed5d71	-0.46360353
69	0xbeddad9f	-0.43296525
70	0xbe0f9bc6	-0.14024267
71	0xbe4c1441	-0.19929601
72	0x3f15dcc4	0.58539987
73	0x3eb6d385	0.35708252
74	0x3d27c988	0.04096368
75	0x3f757805	0.9588626
76	0x3ee8b41c	0.45449913
77	0x3ee445dc	0.44584548
78	0x3fa034a5	1.2516066
79	0x3f41c7b9	0.7569538
80	0xbfa99372	-1.3248122
81	0xbf694904	-0.9112704
82	0xbeab7694	-0.33488905
83	0xbe6b62fe	-0.22986981
84	0x3f22a5a9	0.6353403
85	0x3e85daf1	0.26143602
86	0xbeed440a	-0.46340972
87	0xbe0bd5d4	-0.13655788
88	0xbea2737d	-0.31728736
89	0xbe2d4412	-0.16920498
90	0xbe5f393c	-0.21799177
91	0xbee01331	-0.43764642
92	0xbe7a2019	-0.24426307
93	0xbe784f2d	-0.24248953
94	0xbed39bda	-0.41329843
95	0xbeb9801b	-0.3623055
96	0x3fcb7259	1.5894271
97	0x407492a1	3.8214495
98	0xbf9a0105	-1.2031561
99	0xbfdc77d6	-1.7224071
100	0x3fc5bf56	1.5449016
101	0x3eb3b270	0.35097075
102	0xbe308514	-0.17238265
103	0x3deae00e	0.11468516
104	0x3dc2f5fc	0.09519574
105	0xbfdf89cb	-1.7463926
106	0xbeb5ae32	-0.35484463
107	0x3c9fafa7	0.019492937
108	0x3df1268f	0.117749326
109	0x3d184f73	0.037185144
110	0xbf04a0a4	-0.5180762
111	0xbed7bb27	-0.42134973
112	0xbebcfb4f	-0.36910483
113	0xbf2fc3b8	-0.6865802
114	0xbf0400a9	-0.5156351
115	0xbebf3638	-0.37346053
116	0xbeb7ecc0	-0.35922813
117	0xbec2eae8	-0.38069844
118	0xbf2bb871	-0.6707831
119	0xbebd318f	-0.36951873
120	0xbf9a19c0	-1.2039108
121	0xc04bdb27	-3.185251
122	0x3ef120d8	0.4709537
123	0x3e9c822c	0.30568063
124	0xbfd4b7b9	-1.6618568
125	0xbf279cbb	-0.65473527
126	0x3ee4fb1f	0.4472284
127	0xbf17216e	-0.59035385
128	0x3ec7b979	0.39008692
129	0xbf18e2c4	-0.59721017
130	0x3e9b44f6	0.3032605
131	0x3efe120d	0.49623147
132	0x3f1152a8	0.5676675
133	0x3f1bea21	0.6090413
134	0xbd541f91	-0.051787917
135	0xbd042cda	-0.032269336
136	0xbd3a12da	-0.045428135
137	0xbdf22b8b	-0.118247114
138	0xbe9da0f0	-0.30786848
139	0xbeaaa1a7	-0.33326456
140	0xbe819adb	-0.25313458
141	0xbe371ff7	-0.17883287
142	0xbedc043e	-0.42971987
143	0xbd506d0d	-0.05088525
144	0xbdc40d72	-0.09572877
145	0xbeeba0e4	-0.46021187
146	0xbe6672cf	-0.22504734
147	0xbe6b9cbd	-0.2300901
148	0xbd2a45ad	-0.041570354
149	0x3e14a057	0.1451429
150	0xbe26e17b	-0.16296951
151	0x3f209b54	0.6273701
152	0xbd3c3e50	-0.045957863
153	0xbd31b129	-0.043381844
154	0x3bdc866e	0.0067298925
155	0xbe830f4b	-0.25597605
156	0x3e321ccc	0.17393798
157	0xbefd26f8	-0.49443793
158	0xbe3c5dbb	-0.1839513
159	0xbeca9cd8	-0.39572787
160	0xbef6a7ad	-0.481748
161	0xbe808162	-0.2509871
162	0xbe871e3a	-0.2639025
163	0xbe485891	-0.19565035
164	0xbedbacd6	-0.429053
165	0xbe8f4b48	-0.27987123
166	0xbece5cf1	-0.40305284
167	0xbed75407	-0.42056295
168	0xbdcf08b0	-0.10109079
169	0x3f6bb446	0.9207195
170	0xbe81003d	-0.25195494
171	0xbf9ccb3b	-1.2249521
172	0x3f817e07	1.0116585
173	0x3ce44ee7	0.027869655
174	0x3ed31108	0.4122393
175	0x3f667589	0.90023094
176	0x3f89d9d6	1.0769603
177	0x3f397880	0.72449493
178	0xbe5fb48b	-0.21846215
179	0x3f2cd20f	0.67508024
180	0x3eb50eab	0.35362753
181	0x3f2c051b	0.6719529
182	0xbf2dd9c7	-0.67910427
183	0xbf0b5ab8	-0.544353
184	0xbf236420	-0.63824654
185	0xbea54814	-0.32281554
186	0xbf309c37	-0.68988365
187	0xbf2cfba9	-0.675715
188	0xbf071710	-0.52769566
189	0xbf211605	-0.62924224
190	0xbeb57751	-0.35442594
191	0x3d6c4e0e	0.057691626
192	0xbef00b91	-0.46883824
193	0x3faf659c	1.3702884
194	0xc06746cb	-3.6136959
195	0xc0116792	-2.2719464
196	0xbeb709c2	-0.35749632
197	0x3c73bb5d	0.014876214
198	0xbebbf4ea	-0.36710292
199	0xbdb2ed41	-0.08736659
200	0x3f4a4ec3	0.7902643
201	0x3eefc4a4	0.46829712
202	0xbef3155a	-0.47477227
203	0xbe75cc96	-0.24003825
204	0x3f489f8d	0.78368455
205	0xbee9c840	-0.4566059
206	0xbe8bf233	-0.2733322
207	0xbe8674a6	-0.2626087
208	0xbe626fd0	-0.22112966
209	0xbe239132	-0.15973356
210	0xbe670053	-0.22558717
211	0xbe481f9f	-0.19543312
212	0xbee11a07	-0.4396517
213	0xbdc76405	-0.09735874
214	0xbb5f0e3b	-0.0034035582
215	0x3da7f026	0.082001016
216	0xbf8a6a07	-1.0813607
217	0xbddc97b6	-0.10771124
218	0x3ed9a38e	0.42507595
219	0x402ebfe3	2.7304618
220	0xbf48b0d7	-0.78394836
221	0x3f696295	0.9116605
222	0xbf0fd5be	-0.5618552
223	0xbebb1f0a	-0.36547118
224	0xbec271a0	-0.37977314
225	0x3f4bf96b	0.79677457
226	0xbebb6a06	-0.36604327
227	0x3ef0c7a0	0.47027302
228	0xba5f073b	-0.00085078523
229	0x3f50eaa9	0.81608063
230	0xbecf3705	-0.40471664
231	0xbf060254	-0.523473
232	0xbe29cef1	-0.16582848
233	0xbed165df	-0.40898034
234	0xbee496f8	-0.4464643
235	0xbe9ddfb0	-0.30834723
236	0xbf001146	-0.5002636
237	0xbe62b81e	-0.22140548
238	0xbe42b176	-0.19013008
239	0xbec4c9b8	-0.3843515
240	0xbe3c5fcb	-0.18395917
241	0xbf922410	-1.1417255
242	0x3fb42a8b	1.4075483
243	0xbe1bcca2	-0.1521478
244	0xbf2edcc5	-0.6830562
245	0xbf058c1e	-0.52166927
246	0x3dc021e6	0.093814656
247	0xbdefab07	-0.11702543
248	0x3e9f56dc	0.31120956
249	0x3eace2d9	0.3376682
250	0xbf8574a8	-1.0426226
251	0x3fbb704c	1.4643645
252	0xbe80d0ea	-0.2515939
253	0xbf4e1b17	-0.80510086
254	0xbec57e98	-0.38573146
255	0xbf024324	-0.508837

l1.bias f4 [400]
0	0xbe4aadeb	-0.19792907
1	0xbe2abb15	-0.16672929
2	0xbd93f3e3	-0.07224252
3	0xbea9fb3f	-0.33199498
4	0xbe7a39d1	-0.24436118
5	0xbdd1dbfa	-0.10247035
6	0xbf09f902	-0.5389558
7	0x3f05c86b	0.5225894
8	0x3da2ceff	0.079496376
9	0xbe6a0c13	-0.22856168
10	0x3e5008d5	0.20315869
11	0xbe04349c	-0.12910694
12	0xbd08905c	-0.033340797
13	0x3ebbfbd2	0.3671556
14	0xbe1aa0a1	-0.15100338
15	0x3e1ec45c	0.15504593
16	0x3e9a5f6b	0.30150923
17	0xbd1ba06f	-0.0379948
18	0xbe94bcde	-0.29050344
19	0xbebfd2b0	-0.3746543
20	0x3e429023	0.19000296
21	0x3d39d130	0.045365512
22	0xbd17a569	-0.03702298
23	0xbec2401f	-0.37939546
24	0x3e0825b9	0.1329564
25	0xbe03d99f	-0.12875985
26	0xbe35046f	-0.17677473
27	0x3e7f860f	0.24953483
28	0xbcbc12fd	-0.022958273
29	0xbf4e44a5	-0.80573493
30	0x3e975a3f	0.2956104
31	0x3e48ffe6	0.19628868
32	0x3d2b789e	0.041863076
33	0xbe95e999	-0.29279783
34	0xbe19c39c	-0.15016025
35	0x3c21597a	0.009847993
36	0xbe9e4fce	-0.3092026
37	0xbda0f031	-0.07858313
38	0xbea66603	-0.32499704
39	0xbe60276e	-0.21890041
40	0xbe6ea416	-0.23304781
41	0x3e189f6c	0.14904565
42	0x3e755b36	0.23960575
43	0xbe119863	-0.14218287
44	0xbea7a428	-0.3274243
45	0xbe9c05ba	-0.3047312
46	0xbec37205	-0.38172927
47	0xbee32957	-0.44367477
48	0x3f340b77	0.70329994
49	0x3df2e77e	0.1186056
50	0x3dc8e21c	0.09808752
51	0xbeb94db5	-0.36192098
52	0xbe1d6bf5	-0.15373214
53	0xbd0aabe3	-0.03385533
54	0xbddb04d1	-0.10694278
55	0xbe816f7c	-0.25280368
56	0xbcf8f0a4	-0.030388184
57	0xbf03e2e2	-0.5151807
58	0xbee01ac1	-0.43770412
59	0xbe6c81ba	-0.23096362
60	0x3bb0d31c	0.00539626
61	0x3de590db	0.112092696
62	0x3e65bb33	0.22434692
63	0x3dec651e	0.11542724
64	0xbd8f7767	-0.07005196
65	0xbf1e3f6f	-0.6181554
66	0x3a94469c	0.0011312547
67	0xbe92adf8	-0.28648353
68	0xbf4fe00a	-0.8120123
69	0xbe1c727c	-0.15278047
70	0xbd5d47f7	-0.05402371
71	0x3e3e0e10	0.18560052
72	0x3e18198e	0.14853498
73	0x3e2a5c71	0.16636826
74	0xbe7dda78	-0.2479037
75	0xbdcbfa4a	-0.09959848
76	0x3ebab0fb	0.3646315
77	0x3da6dc94	0.08147541
78	0x3ecefbdb	0.40426525
79	0xbef49ce8	-0.4777596
80	0x3e11db35	0.14243777
81	0xbde62225	-0.11236981
82	0xbe36ad7c	-0.17839617
83	0xbdc7e95c	-0.09761307
84	0xbe22c62c	-0.15895909
85	0xbe406824	-0.18789726
86	0xbeaacf85	-0.3336145
87	0xbea0de50	-0.3141961
88	0xbedab7f8	-0.42718482
89	0xbefab6f5	-0.4896771
90	0xbd7c53ca	-0.061603345
91	0x3eae0732	0.33989865
92	0xbef37e24	-0.47557175
93	0xbef6cb11	-0.48201802
94	0xbeec8002	-0.46191412
95	0xbe93f787	-0.28899786
96	0x3f40aff4	0.75268483
97	0x3c206dc0	0.009791791
98	0xbe73870c	-0.23781985
99	0xbe5f571d	-0.21810575
100	0xbe95a31c	-0.29226005
101	0x3f307a1b	0.6893632
102	0x3df57e69	0.119870014
103	0xbf11be33	-0.56930846
104	0x3eddf69d	0.43352214
105	0xbd9e9aa7	-0.07744341
106	0xbe8cac52	-0.2747522
107	0xbf25ce43	-0.64767855
108	0xbe90a1a5	-0.28248325
109	0x3e3c2099	0.1837181
110	0x3d13bdc4	0.036069646
111	0xbe6c54af	-0.23079179
112	0xbb9a1c57	-0.0047030854
113	0xbd39178c	-0.04518847
114	0xbd3a3f57	-0.04547056
115	0xbe81ba20	-0.25337315
116	0xbecd3ec3	-0.40086946
117	0xbf0791d0	-0.5295687
118	0xbdb66d78	-0.08907598
119	0x3d52fb10	0.051508963
120	0xbe347a60	-0.17624807
121	0xbe25682b	-0.16153018
122	0xbe9ded6d	-0.30845204
123	0x3c480301	0.012207747
124	0xbc1f124b	-0.009708951
125	0xbf128987	-0.572411
126	0xbdefb66b	-0.11704715
127	0xbee53507	-0.4476702
128	0xbd87ec8b	-0.06636914
129	0xbe58fc5e	-0.2119002
130	0x3e1e17df	0.15438794
131	0xbedd35bd	-0.43205062
132	0x3b94ad29	0.004537244
133	0xbd868253	-0.06567826
134	0x3ebbb71b	0.36663136
135	0xbbbb649b	-0.00571878
136	0xbef4a0e5	-0.47779003
137	0xbe9814d9	-0.29703405
138	0xbe0c10f0	-0.13678336
139	0xbe14690c	-0.14493197
140	0xbec0fd33	-0.37693176
141	0xbcde9062	-0.027168456
142	0xbe1a1c3a	-0.1504983
143	0xbf25fe9a	-0.64841616
144	0x3dedbe27	0.11608534
145	0x3d1401f4	0.036134675
146	0xbe67a2eb	-0.22620742
147	0x3e4c7f00	0.19970322
148	0xbdce1637	-0.10062831
149	0xbd4272f6	-0.047472917
150	0xbe300f79	-0.17193402
151	0x3eb29827	0.34881708
152	0x3d08214e	0.033234887
153	0xbed448b2	-0.41461712
154	0xbe926bab	-0.2859777
155	0xbd4d883d	-0.050178755
156	0xbdc1eb97	-0.09468763
157	0xbeb2977c	-0.34881198
158	0xbde278e7	-0.110582165
159	0xbe814467	-0.252475
160	0x3ddd220c	0.107975096
161	0x3e8a9af1	0.27071336
162	0xbec670bb	-0.38757882
163	0xbe31be0d	-0.17357655
164	0xbe722bb8	-0.2364949
165	0x3dcda499	0.1004116
166	0xbd7d503e	-0.061844103
167	0xbf3c34fe	-0.7351836
168	0xbf0ae357	-0.54253143
169	0x3eacb733	0.3373352
170	0xbe9113df	-0.28335473
171	0xbe05a304	-0.13050467
172	0xbed4f4b2	-0.41592938
173	0xbde85bd7	-0.11345642
174	0xbeea9044	-0.4581319
175	0x3d8e5e18	0.06951541
176	0xbf2ed554	-0.6829426
177	0xbecbac40	-0.39779854
178	0x3ebe504b	0.37170634
179	0xbe4732b7	-0.1945294
180	0x3e47116f	0.19440244
181	0x3de2fc74	0.11083308
182	0xbf0cddea	-0.55026114
183	0x3ea66db7	0.3250558
184	0xbcc5dc3f	-0.024152873
185	0x3eddbca2	0.43307978
186	0xbd9ccba4	-0.07656029
187	0xbcdef05c	-0.027214222
188	0x3f40a071	0.75244814
189	0xbf3730d3	-0.71558875
190	0x3e1cc0f1	0.15307976
191	0xbec2f187	-0.38074896
192	0xbe8be997	-0.27326652
193	0x3e17fc92	0.14842442
194	0x3d943303	0.07236292
195	0xbed656a8	-0.41862988
196	0xbf0246f5	-0.5088952
197	0xbd2c010f	-0.041993197
198	0xbf061d99	-0.5238891
199	0xbf05ab3a	-0.52214396
200	0x3ddc74dd	0.107644774
201	0xbef35a30	-0.47529745
202	0xbe764866	-0.24051055
203	0x3e8a2874	0.26983988
204	0xbe67cba8	-0.22636282
205	0xbe36969a	-0.17830887
206	0xbe72d365	-0.23713453
207	0x3e8d196d	0.2755846
208	0xbf480c96	-0.78144205
209	0xbf1192b3	-0.5686447
210	0xbe31aa4f	-0.17350124
211	0x3e2e3ed5	0.17016156
212	0xbe95e6ea	-0.29277736
213	0xbf3c653f	-0.7359199
214	0xbce44066	-0.027862739
215	0xbe7edf4e	-0.24889871
216	0x3e0fcdbb	0.14043324
217	0xbcf01e54	-0.029311337
218	0xbe4cf634	-0.20015794
219	0x3d8a942e	0.06766544
220	0xbe9c637f	-0.3054466
221	0xbf2a2c78	-0.66474104
222	0x3e85f0ce	0.26160282
223	0xbd6300ee	-0.05542081
224	0xbe3a49de	-0.1819224
225	0x3ea78d4e	0.32724994
226	0xbe61c887	-0.22049151
227	0xbda5569a	-0.080731586
228	0x3e0d813c	0.1381883
229	0x3ea8a02e	0.32934707
230	0x3e02ec59	0.12785472
231	0x3e5b28a1	0.21402217
232	0xbf0fe19f	-0.56203645
233	0xbf07f5e7	-0.5310959
234	0x3ebea8b5	0.37238088
235	0xbe48b010	-0.19598413
236	0xbd5017a3	-0.05080379
237	0xbf0e4859	-0.55579144
238	0xbed1e91b	-0.40998158
239	0xbdced311	-0.100988515
240	0xbebd90df	-0.3702459
241	0xbe614003	-0.21997075
242	0x3cd54c64	0.026037402
243	0xbc1b3237	-0.009472421
244	0x3d50622c	0.050874874
245	0x3eac2278	0.33620048
246	0xbe9c694a	-0.3054908
247	0x3e868df3	0.26280174
248	0xbe89ee9d	-0.2693986
249	0xbe911137	-0.28333446
250	0x3c82e712	0.015979324
251	0x3eecf0d2	0.4627748
252	0xbe8c069f	-0.27348801
253	0xbd765b79	-0.06014583
254	0xbe1c2702	-0.15249255
255	0x3e956670	0.29179716

l2.weight f4 [300, 400]
0	0x3cda6674	0.026660182
1	0xbef18846	-0.4717428
2	0x3e8913bc	0.2677287
3	0x3ebf4fc1	0.37365535
4	0x3f33514e	0.70045936
5	0x3b085e94	0.0020808326
6	0x3d90fe0a	0.07079704
7	0xbf010ddd	-0.5041178
8	0x3c31f7f3	0.010862338
9	0xbeac1c41	-0.33615306
10	0xbe486118	-0.19568288
11	0x3d4b3556	0.049611412
12	0x3cff85ac	0.03119167
13	0x3e625c39	0.22105493
14	0x3bc79fdb	0.0060920543
15	0xbee82e2c	-0.45347726
16	0x3f96da19	1.1785308
17	0xbd325b8b	-0.043544333
18	0x3e2026dc	0.15639824
19	0xbe531d0e	-0.20616552
20	0xbf5bd56e	-0.8587254
21	0x3ed4761f	0.4149637
22	0xbe018935	-0.12649997
23	0xbe5eb45b	-0.21748488
24	0xbedadbf3	-0.42745933
25	0xbeb477f9	-0.35247782
26	0xbb8cce23	-0.0042970343
27	0x3f7c2440	0.98492813
28	0x3facd5bc	1.3502727
29	0xbe51b4c0	-0.20479107
30	0x3f4b75fd	0.7947691
31	0x3dd54c98	0.10415
32	0x3e35e679	0.177637
33	0xbec1068f	-0.37700316
34	0xbe82580f	-0.25457808
35	0x3f2fd40f	0.6868295
36	0x3e23140c	0.15925616
37	0xbd404a0e	-0.046945624
38	0xbd3a0ef5	-0.04542442
39	0x3e432c12	0.1905978
40	0xbf0fc0de	-0.56153667
41	0x3eb54d9b	0.3541077
42	0xbdc6fb38	-0.09715885
43	0x3fbffa5d	1.499828
44	0xbe799c2f	-0.24375986
45	0x3f4c25e7	0.79745334
46	0xbec81fbf	-0.3908672
47	0x3f2f9cde	0.68598735
48	0xbf4c2f3a	-0.7975956
49	0x3c7ccb60	0.015429348
50	0xbf862ab1	-1.0481778
51	0xbf5c80ce	-0.8613404
52	0xbf85bd29	-1.0448352
53	0x3ef26185	0.47340026
54	0xbf2a223f	-0.66458505
55	0xbca2cd5d	-0.019873315
56	0xbe9a8c27	-0.30185053
57	0x3e311799	0.17294158
58	0xbee9bbd3	-0.4565111
59	0xbf7f9be6	-0.9984726
60	0xbf989364	-1.191998
61	0x3ee8e62e	0.45488113
62	0x3ee55747	0.4479315
63	0xbe977d1a	-0.29587632
64	0xbfa027bc	-1.2512126
65	0xbfb96d76	-1.448653
66	0xbda4adae	-0.08040939
67	0x3d9736bd	0.073834874
68	0xbe66e462	-0.22548059
69	0x3c786331	0.015160368
70	0x3c94920b	0.018136045
71	0xbd93bbaf	-0.07213532
72	0xbebaf990	-0.36518526
73	0x3f0c30ae	0.5476178
74	0x3cf6e79b	0.030139735
75	0x3eeb3252	0.4593683
76	0xbf25b4b2	-0.64728844
77	0x3f92e7e1	1.1477014
78	0xbe0ded47	-0.13860045
79	0x3edc5d56	0.4303996
80	0xbf325fc7	-0.69677395
81	0xbce0f787	-0.02746178
82	0x3f033c77	0.5126414
83	0xbe5f567e	-0.21810338
84	0xbc2c0ccc	-0.010501098
85	0xbe116ba2	-0.14201215
86	0xbf7184e9	-0.9434343
87	0x3f142c52	0.5788013
88	0x3ee00934	0.4375702
89	0xbf45e902	-0.77308667
90	0x3e873a14	0.26411498
91	0xbe079a78	-0.13242519
92	0xbdbfe731	-0.09370268
93	0x3d16f0f2	0.036850877
94	0xbf199d5a	-0.60005724
95	0xbf167abf	-0.58781046
96	0x3f1ab018	0.6042495
97	0xbebecfda	-0.37267953
98	0x3c8b339d	0.016992385
99	0x3fd6c026	1.6777389
100	0x3e61636c	0.22010583
101	0xbf0abe75	-0.54196864
102	0xbeecca0e	-0.46247905
103	0xbf92f16b	-1.1479925
104	0x3ef480a7	0.47754404
105	0xbe2fd06f	-0.17169355
106	0xbf17ecaa	-0.59345496
107	0xbe0e8350	-0.13917279
108	0x3f136b79	0.57585865
109	0xbf444734	-0.7667115
110	0x3f0a0faa	0.5393015
111	0x3f0eb8fc	0.55751014
112	0x3e486e67	0.19573365
113	0xbee724b4	-0.4514519
114	0x3e10ccfc	0.14140695
115	0xbe550e7e	-0.2080631
116	0x3f20a5fa	0.6275326
117	0xbf8ebf21	-1.1152078
118	0xbecd3d42	-0.40085799
119	0xbf1ff140	-0.62477493
120	0xbef73aab	-0.48286948
121	0xbc638936	-0.013887694
122	0x3e86f2d6	0.26357144
123	0x3d01732b	0.031603973
124	0x3ed99135	0.42493597
125	0xbe140b4d	-0.14457436
126	0xbec97ac1	-0.39351466
127	0xbf7f4923	-0.9972097
128	0xbd0c7b7c	-0.03429745
129	0x3bbc39a8	0.005744178
130	0xbe8a9bc1	-0.27071956
131	0xbef0e320	-0.47048283
132	0x3e23a261	0.15979911
133	0x3d90181d	0.07035849
134	0xbfb1c19c	-1.388721
135	0xbe987266	-0.2977478
136	0xbc84f2a3	-0.01622898
137	0x3f187f92	0.59569657
138	0x3b138fc5	0.0022516113
139	0xbecba724	-0.39775956
140	0xbf7545de	-0.95809734
141	0x3e38dc7c	0.18052858
142	0x3d3b007b	0.045654755
143	0xbd089877	-0.033348527
144	0xbe71f315	-0.23627885
145	0x3eca6cde	0.39536184
146	0x3f843a52	1.0330298
147	0x3f365439	0.71222264
148	0xbf477964	-0.779196
149	0xbfa9d794	-1.3268914
150	0xbf4ef2bc	-0.80839133
151	0x3dfd38ab	0.12364324
152	0xbf344e04	-0.7043154
153	0xbd49c2d7	-0.04925808
154	0xbec9898e	-0.39362758
155	0xbe70907a	-0.23492613
156	0xbd94eb14	-0.072714
157	0x3e81a9d0	0.2532487
158	0x3f33664d	0.70077974
159	0xbcce958b	-0.025217792
160	0x3d9f8680	0.07789326
161	0x3f7d6f84	0.98998284
162	0x3f65caa7	0.8976235
163	0x3c862526	0.016375136
164	0x3d78d39c	0.06074868
165	0xbe2a1788	-0.16610539
166	0x3ebc74f2	0.36807972
167	0x3edc5ead	0.43040982
168	0xbf143432	-0.57892144
169	0xbe7fc049	-0.24975695
170	0xbd7b72b6	-0.061388694
171	0x3ef75f11	0.48314717
172	0xbeaa3d16	-0.3324973
173	0x3f660c87	0.89862865
174	0xbd6fa1c8	-0.058503896
175	0xbedf989a	-0.43671113
176	0xbf428be7	-0.75994724
177	0x3d6f61e9	0.058442984
178	0xbe213835	-0.15744098
179	0xbf08b23d	-0.5339697
180	0x3eb28554	0.34867346
181	0xc019dd54	-2.4041338
182	0x3f914455	1.1348978
183	0x3ece7053	0.40320072
184	0xbcdde7f6	-0.027088147
185	0xbf221b4a	-0.6332289
186	0xbe837c92	-0.25680977
187	0xbd8269e7	-0.063678555
188	0xbf299c05	-0.6625369
189	0xbf754a0b	-0.95816106
190	0xbf2b6468	-0.6695008
191	0x3ea80091	0.32812932
192	0xbec7790c	-0.3895954
193	0xbf0a4ac9	-0.54020363
194	0xbf63c038	-0.8896518
195	0xbfc8648e	-1.5655687
196	0xbe3d542f	-0.18489145
197	0x3ea0b4b5	0.3138787
198	0xbe64b9b7	-0.2233647
199	0xbf7361fa	-0.95071375
200	0x3f3f2791	0.7466975
201	0xbec1672d	-0.3777403
202	0xbd3fc8ab	-0.04682223
203	0x3f5f46bc	0.8721731
204	0xbd4a467f	-0.049383637
205	0xbe5a9782	-0.21346858
206	0x3f7c390a	0.98524535
207	0x3d44168d	0.04787307
208	0x3f8abafc	1.0838313
209	0xbfa93d7f	-1.3221892
210	0x3dbe31c7	0.09286838
211	0x3ef15151	0.47132352
212	0xbfd11ef9	-1.6337577
213	0xbf5f0118	-0.87111044
214	0xbd9b1e4e	-0.075741395
215	0xbdaab6a2	-0.08335616
216	0xbebf7395	-0.3739287
217	0x3e676246	0.22596082
218	0x3e8d476c	0.27593553
219	0x3e1e9ac2	0.15488723
220	0x3da79928	0.08183509
221	0x3e84bdcc	0.25926054
222	0x3e4ae17f	0.19812582
223	0x3f0fde3a	0.56198466
224	0xbf0af3a5	-0.5427802
225	0x3ecc8cf6	0.39951295
226	0xbeb8ae51	-0.36070493
227	0x3d003b8d	0.031306792
228	0x3f844498	1.0333433
229	0x3d62b54e	0.055348687
230	0xbedec06d	-0.43506184
231	0x3e85851d	0.2607812
232	0xbea2b30c	-0.31777227
233	0x3e6631fc	0.22480005
234	0x3de1e014	0.11029068
235	0x3f059434	0.52179265
236	0xbf4de2b7	-0.80424064
237	0xbe31920e	-0.17340872
238	0xbeda29a4	-0.42609894
239	0x3e954492	0.29153877
240	0x3f8e3615	1.1110255
241	0x3d8a8284	0.06763175
242	0xbf6f9d7a	-0.93599665
243	0xbfa8dd02	-1.3192446
244	0xbf825033	-1.0180725
245	0x3efe8f7d	0.49718848
246	0x3cc09ad2	0.023511324
247	0xbe835331	-0.25649408
248	0xbe123bca	-0.1428062
249	0xbd9713e2	-0.07376839
250	0xbe3b2545	-0.18275936
251	0x3ed51ac5	0.41621986
252	0xbfa57da3	-1.2928966
253	0x3db12c08	0.086509764
254	0xbed9fa6f	-0.42573878
255	0x3d81a893	0.06330981

l2.bias f4 [300]
0	0xbfaa599a	-1.3308594
1	0xbd563764	-0.05229892
2	0xbeb1fdd3	-0.34763965
3	0x3efaa861	0.48956588
4	0xbed33256	-0.4124934
5	0xbcea262e	-0.028582659
6	0x3f6daf87	0.9284596
7	0xbde5eefa	-0.11227222
8	0xbe8736ff	-0.26409146
9	0xbd5b94f5	-0.053608853
10	0xbe0de270	-0.1385591
11	0x3e0ef4cb	0.13960569
12	0xbd600169	-0.054688845
13	0x3f38415a	0.7197472
14	0xbdad21d0	-0.08453715
15	0xbc136c79	-0.00899803
16	0x3cc1cab1	0.023656221
17	0x3e8c4251	0.27394345
18	0x3f0c2caf	0.5475568
19	0xbd2b3223	-0.04179586
20	0xbe128d7f	-0.14311789
21	0xbecba51d	-0.3977441
22	0xbd82b7b0	-0.06382692
23	0xbd3a55c3	-0.045491945
24	0xbdbd6157	-0.09247082
25	0xbde23f7b	-0.11047264
26	0xbeb9b9c5	-0.36274543
27	0xbef281f9	-0.47364786
28	0xbf2f8f90	-0.68578434
29	0x3eb10229	0.3457196
30	0xbf3cc8b3	-0.7374374
31	0xbd98eace	-0.074666604
32	0xbe80059e	-0.25004286
33	0x3df4e4bc	0.1195769
34	0x3f47d7e1	0.7806378
35	0xbc74c592	-0.014939683
36	0xbef2823e	-0.47364992
37	0xbd892de1	-0.06698204
38	0x3e861f33	0.26195678
39	0xbd204238	-0.03912565
40	0x3f0adf05	0.5424655
41	0xbd5db364	-0.05412616
42	0xbef1c30e	-0.47219127
43	0xbd189c13	-0.03725822
44	0xbf033e18	-0.5126662
45	0xbda53a34	-0.08067742
46	0x3fa2383d	1.2673413
47	0x3de5a311	0.11212743
48	0xbe22da28	-0.15903533
49	0x3dbc3f33	0.09191742
50	0xbd9cc539	-0.07654805
51	0xbeac5086	-0.33655185
52	0xbf293496	-0.66095865
53	0x3dbcf1ba	0.09225793
54	0xbd2b276c	-0.041785643
55	0xbd99b174	-0.075045496
56	0x3db26741	0.087111
57	0x3ea6e504	0.325966
58	0xbd5f0834	-0.054451182
59	0xbddbef84	-0.10739043
60	0xbdd90142	-0.10595943
61	0xbd0559a7	-0.032556202
62	0xbcf45530	-0.029825777
63	0xbe8857a6	-0.2662937
64	0x3ccc3813	0.024929082
65	0xbd943164	-0.07235983
66	0xbe93c07b	-0.28857788
67	0xbd91a6fa	-0.071119264
68	0x3eb72e1c	0.35777366
69	0xbdd484a6	-0.10376863
70	0xbc8b44a6	-0.017000508
71	0xbf456563	-0.7710783
72	0x3e88e5f8	0.26737952
73	0x3e850086	0.25976962
74	0xbd946f30	-0.0724777
75	0xbd9b16f6	-0.07572739
76	0xbd16b561	-0.03679407
77	0xbdaa391b	-0.08311673
78	0xbdc41612	-0.09574522
79	0xbc9bee5d	-0.019034559
80	0xbee0f047	-0.43933317
81	0xbd6608fb	-0.05616091
82	0xbd332ca0	-0.04374373
83	0xbd89022e	-0.06689869
84	0x3c789150	0.015171364
85	0x3d215607	0.039388683
86	0x3fa3f5e3	1.2809414
87	0xbdc41d55	-0.09575907
88	0xbe8b32ce	-0.27187198
89	0x3def4036	0.11682169
90	0xbe9d83fd	-0.30764762
91	0x3e63a074	0.22229177
92	0xbd9083fc	-0.07056424
93	0xbf3bd535	-0.73372203
94	0xbecdd8ce	-0.4020447
95	0x3f1a490e	0.6026772
96	0x3f2811ca	0.65652144
97	0xbe86c7bb	-0.26324257
98	0xbe3037f8	-0.1720885
99	0xbe47284b	-0.19448964
100	0xbd9645ca	-0.0733753
101	0xbf3e7cc0	-0.74409103
102	0x3d61fd17	0.055173006
103	0x3e81edcc	0.25376737
104	0xbee6d3c4	-0.4508344
105	0xbf692310	-0.91069126
106	0xbc8dd9ab	-0.017315706
107	0xbe9e87ee	-0.3096308
108	0xbec725d7	-0.38896057
109	0xbde007db	-0.10938998
110	0x3d1e2064	0.03860511
111	0x3f5f11ac	0.8713634
112	0x3c75a264	0.01499233
113	0xbd3291a9	-0.043595944
114	0xbd14a5de	-0.036290996
115	0xbd7b66f4	-0.06137748
116	0xbe1df8b5	-0.15426905
117	0xbd7e92b8	-0.06215164
118	0xbe53dfc6	-0.20690832
119	0xbda1e1c4	-0.079043895
120	0xbe954397	-0.2915313
121	0x3d917e2a	0.07104142
122	0x3ed7cd70	0.42148924
123	0x3f36550c	0.7122352
124	0xbe5c2f75	-0.21502478
125	0xbe0c2817	-0.13687168
126	0xbdcef38f	-0.10105049
127	0xbd2cdf8c	-0.04220538
128	0xbeb36117	-0.3503501
129	0x3efa88f2	0.48932606
130	0xbd169b97	-0.036769476
131	0xbf6bb148	-0.92067385
132	0x3c6c8205	0.014435296
133	0xbdb7498d	-0.089495756
134	0xbe48188f	-0.19540618
135	0xbf5d720e	-0.8650216
136	0xbdfb017e	-0.12256144
137	0xbd872d9e	-0.06600498
138	0x3c6f8175	0.014618267
139	0xbdc01d4c	-0.09380588
140	0xbd0ed785	-0.034873504
141	0xbe29ee68	-0.16594851
142	0x3e294246	0.16529188
143	0xbed128e7	-0.4085152
144	0xbe9de69c	-0.30840003
145	0xbd9543d0	-0.07288325
146	0x3c85f351	0.016351374
147	0xbdaa3bbf	-0.08312177
148	0xbcb6939c	-0.022287183
149	0xbd7277a3	-0.059196126
150	0xbdc2d1a6	-0.095126435
151	0xbf4c52a2	-0.7981359
152	0x3ed9c94e	0.42536396
153	0x3d4231ef	0.0474109
154	0xbd4f4722	-0.050604947
155	0xbda234d7	-0.07920235
156	0x3db3f696	0.08787267
157	0xbeba871e	-0.3643121
158	0xbc986ee4	-0.018607564
159	0x3b5ce03a	0.0033702985
160	0x3bfcf34e	0.007719434
161	0x3edca3f3	0.43093833
162	0xbf52e331	-0.82377917
163	0xbdc6f0af	-0.097138755
164	0xbdba14d5	-0.09086005
165	0x3e976288	0.2956736
166	0xbf81e385	-1.0147558
167	0xbdaa50f3	-0.08316221
168	0xbcad1610	-0.021128684
169	0xbed252a2	-0.4107867
170	0xbecd8eb1	-0.40147927
171	0xbdc1da4c	-0.09465465
172	0x3ea3c958	0.3198955
173	0xbf89a357	-1.0752972
174	0xbd78de4c	-0.060758874
175	0xbd7b7389	-0.06138948
176	0xbd91965b	-0.07108756
177	0xbd856a23	-0.065143846
178	0x3d8165b7	0.06318229
179	0xbef0a6a7	-0.47002146
180	0xbda197d4	-0.07890287
181	0xbe081ca4	-0.13292176
182	0x3df0c8db	0.1175706
183	0x3caf4692	0.021395955
184	0x3edef3f4	0.43545496
185	0xbe4ad595	-0.19808038
186	0xbd617e6e	-0.055052213
187	0x3eec7be3	0.46188268
188	0xbe457897	-0.19284283
189	0xbebc369d	-0.36760417
190	0xbcd73025	-0.026268074
191	0xbd9fab50	-0.07796347
192	0xbe8a492f	-0.2700896
193	0xbdb80a60	-0.08986354
194	0x3f425fdd	0.75927526
195	0xbcc0404c	-0.02346816
196	0xbde65473	-0.11246576
197	0xbf07a223	-0.52981776
198	0xbd7ce037	-0.061737265
199	0x3e9a3df6	0.30125397
200	0xbca8b990	-0.020596296
201	0xbdd286e5	-0.10279635
202	0xbe80735e	-0.25088018
203	0xbf33619a	-0.70070803
204	0xbf00c467	-0.50299686
205	0xbe29e495	-0.16591103
206	0x3f35ec16	0.71063364
207	0xbc591f9e	-0.013252167
208	0xbeae98ee	-0.3410105
209	0xbd9e82da	-0.07739802
210	0xbd87b595	-0.06626431
211	0x3bb5e84c	0.0055513736
212	0xbdef00fb	-0.11670109
213	0xbdcdfbc1	-0.10057784
214	0xbf85da29	-1.0457202
215	0x3ea7d74f	0.32781455
216	0xbdc5508f	-0.09634506
217	0xbd90beae	-0.07067619
218	0x3e4dc108	0.20093167
219	0xbcca5616	-0.024699252
220	0xbea4cc39	-0.3218706
221	0xbe91bf35	-0.28466192
222	0xbc2a1363	-0.010380599
223	0xbf1ec969	-0.6202608
224	0xbe79a6d0	-0.2438004
225	0x3bf3f12c	0.0074445214
226	0x3d6363cf	0.055515107
227	0xbf628360	-0.8848171
228	0xbdceceda	-0.100980476
229	0xbe26d369	-0.16291584
230	0xbd55cdf6	-0.052198373
231	0x3f84a0b9	1.0361549
232	0xbea6e002	-0.3259278
233	0xbd66f1a5	-0.056382794
234	0xbd932943	-0.071856044
235	0xbdcccd88	-0.100001395
236	0xbf4b925b	-0.79520196
237	0xbede80d3	-0.4345766
238	0xbdcd5f91	-0.100279935
239	0x3bfa34c6	0.0076356856
240	0xbdd65c96	-0.10466878
241	0xbef79602	-0.48356634
242	0xbe0a9d7c	-0.13536638
243	0x3d4b3db4	0.04961939
244	0x3e55a23b	0.20862667
245	0xbf154ec4	-0.5832331
246	0xbd84dcee	-0.064874515
247	0x3d2df6b0	0.042471588
248	0x3de47898	0.11155814
249	0xbe14b675	-0.14522727
250	0x3e9b7187	0.30360052
251	0x3f2a3371	0.66484743
252	0xbdb02005	-0.08599857
253	0x3f8c8610	1.0978413
254	0x3d7d4c9e	0.061840646
255	0xbe9b59b9	-0.3034189

l3.weight f4 [4, 300]
0	0x3e06191f	0.1309552
1	0x3b94a03d	0.0045357035
2	0xbde8ddb0	-0.113704085
3	0x3f0a7de5	0.5409835
4	0xbd248ef5	-0.040175397
5	0xbc684d62	-0.014178606
6	0x3f62b159	0.8855186
7	0x3c25ecc4	0.01012725
8	0x3b4ff7db	0.0031733427
9	0x3d44af33	0.048018645
10	0xbe35bf63	-0.1774879
11	0x3ebe1608	0.37126184
12	0xbc5ba302	-0.013405563
13	0x3f8ba83a	1.0910714
14	0x3d7fe7af	0.06247681
15	0x3e7210be	0.23639199
16	0x3f00a86f	0.5025701
17	0xbd352e22	-0.04423345
18	0xbf75b34e	-0.9597672
19	0x3f50c9f8	0.8155818
20	0xbe00917c	-0.12555498
21	0x3e7e0a41	0.24808599
22	0xbd78526e	-0.060625486
23	0xbc9db9bf	-0.01925361
24	0x3d72a17d	0.05923604
25	0x3c9dc8d1	0.019260796
26	0xbe8e2a57	-0.27766678
27	0xbe722cbc	-0.23649877
28	0x3e2c5d58	0.16832483
29	0x3ecc7b2f	0.39937732
30	0xbe561eea	-0.2091023
31	0x3c8347ce	0.01602545
32	0x3f4167c4	0.7554896
33	0xbfb7eb37	-1.4368657
34	0x3fb2d026	1.3969772
35	0xbfba6699	-1.456256
36	0xbe72affb	-0.23699944
37	0x3c5def95	0.01354589
38	0x3f0e7794	0.5565121
39	0xbe62763a	-0.22115412
40	0x3e983629	0.2972882
41	0xbcee9390	-0.029123098
42	0xbdd45dd7	-0.10369461
43	0x3cb83309	0.022485273
44	0x3e0dc81f	0.13845871
45	0xbd56614f	-0.052338894
46	0xbe0b1871	-0.13583542
47	0x3f8abc42	1.0838702
48	0xbed9a919	-0.42511824
49	0x3dfce6cc	0.123487085
50	0x3cd56f60	0.026054084
51	0x3ccd4c90	0.025060922
52	0xbf5285b1	-0.82235247
53	0x3f8ea243	1.1143268
54	0x3c822745	0.015887866
55	0xbcca44d6	-0.024691027
56	0xbf30508c	-0.68872905
57	0xbeee31b3	-0.46522292
58	0xbb510aa5	-0.0031897214
59	0xbbe42689	-0.0069626016
60	0x3cd44c2c	0.025915228
61	0x3d352786	0.044227146
62	0xbd1bd947	-0.03804901
63	0x3ef3fa3e	0.47651857
64	0x3f2c1fbe	0.67235935
65	0xbfb86733	-1.4406494
66	0x3f25c4b6	0.6475328
67	0x3e54e873	0.20791797
68	0xbf69411d	-0.9111498
69	0xbbbfc80b	-0.0058527044
70	0x3b7abbf6	0.0038259006
71	0xbedef29f	-0.4354448
72	0x3fa5a4b6	1.2940891
73	0x3db5bd43	0.088739894
74	0xbafbd284	-0.0019212519
75	0x3d7a7096	0.061142527
76	0xbce3f1b0	-0.027825207
77	0x3c8f2766	0.017474841
78	0x3ca579ea	0.020199735
79	0x3c06bd7f	0.00822389
80	0xbe11bb5c	-0.14231628
81	0x3c81d5ca	0.015849013
82	0x3cb0b46d	0.021570409
83	0x3c9c080d	0.019046808
84	0x3d5aeadc	0.053446636
85	0x3f78f536	0.9724916
86	0x3ec3600f	0.38159224
87	0x3f5b143a	0.8557774
88	0x3ec29631	0.38005212
89	0xbf6f3884	-0.9344561
90	0xc01eecb4	-2.4831972
91	0xbeb04460	-0.34427166
92	0x3bdc834a	0.006729518
93	0x3e74407a	0.23852721
94	0x3ea3a1c3	0.31959352
95	0x3f03ac4b	0.51434773
96	0xbfcdf477	-1.609023
97	0xbecffcf7	-0.40622684
98	0xbd732f5e	-0.059371345
99	0xbc0b9b48	-0.008520909
100	0x3c9abcc2	0.018888835
101	0x3ec98fcf	0.3936753
102	0xbf0af6bc	-0.54282737
103	0xbe025dfb	-0.12731163
104	0x3e1bd59f	0.15218209
105	0x3f796fb6	0.9743608
106	0x3c12db34	0.008963395
107	0x3e476894	0.19473487
108	0x3ece4636	0.40287942
109	0xbf59e08d	-0.8510826
110	0x3f400b7a	0.7501751
111	0xbf80c595	-1.0060297
112	0xba22151d	-0.00061829557
113	0x3b7637d7	0.0037569904
114	0x3c596b21	0.01327017
115	0xbc13a7e4	-0.009012196
116	0x3db989d3	0.09059491
117	0x3d27a195	0.04092558
118	0x3dd2501a	0.102691844
119	0xbef745ea	-0.48295528
120	0x3dcc222f	0.099674575
121	0x3dcc0ec2	0.09963752
122	0x3f8b733e	1.0894544
123	0x3e93d2bd	0.28871718
124	0x3fb9b583	1.4508518
125	0x3e97443f	0.29544255
126	0x3cf62319	0.030046033
127	0xbd153b28	-0.03643337
128	0x3d9177b5	0.071029104
129	0x3e0b0245	0.13575085
130	0xbb0bb038	-0.0021314751
131	0x3f433fb3	0.7626907
132	0x3f115ffe	0.567871
133	0x3d2cc1eb	0.042177122
134	0x3e43a17a	0.19104567
135	0x3eab7efc	0.3349532
136	0xbd910e68	-0.07082826
137	0xbc296bca	-0.01034064
138	0xbdca9001	-0.09890748
139	0xbebf2fe0	-0.37341213
140	0x3c3e2a99	0.011606836
141	0xbf0a5d86	-0.54048955
142	0xbe83048a	-0.255894
143	0x3e9a892d	0.30182782
144	0x3daadf1e	0.083433375
145	0x3bec256d	0.00720661
146	0x3fe69ed5	1.8017222
147	0x3f4658eb	0.7747943
148	0x3cb51648	0.022105351
149	0x3b458df4	0.0030144425
150	0xbc27c232	-0.010239171
151	0xbe893694	-0.26799452
152	0x3dc26cb5	0.094933905
153	0x3f84d099	1.0376159
154	0xbc816fd6	-0.015800398
155	0x3ced56b4	0.028972007
156	0xbdef6a7e	-0.11690234
157	0x3e02bcf1	0.12767388
158	0xbdcb973a	-0.099409536
159	0x3d0620bc	0.03274606
160	0x3d3a1274	0.045427755
161	0xbf6fb637	-0.9363741
162	0x3f381250	0.7190294
163	0xbce07aa0	-0.027402222
164	0x3cb61187	0.022225155
165	0x3b7a0aac	0.0038153334
166	0x3d057433	0.03258152
167	0xbbdcdbe2	-0.0067400793
168	0x3bd12c98	0.00638349
169	0xbf6e038d	-0.9297417
170	0x3ce598ad	0.028026903
171	0x3d01d78d	0.031699706
172	0x3f9b4cad	1.2132775
173	0xbf9aa340	-1.208107
174	0x3d55743c	0.052112803
175	0x400a878d	2.1645234
176	0x3e540c2b	0.20707767
177	0xbd4fadd8	-0.0507029
178	0x3f24f8a2	0.64441884
179	0x3efcbeb1	0.49364236
180	0xbb70eee8	-0.0036763493
181	0x3c123463	0.008923623
182	0x3f9c00d1	1.2187749
183	0xbf05bd58	-0.5224204
184	0xbe8c3707	-0.27385733
185	0x3dea62c1	0.11444617
186	0x3f44d277	0.76883644
187	0x3e8fe383	0.28103265
188	0xbf3ccdd7	-0.73751587
189	0x3e753acc	0.2394821
190	0x3d819b98	0.06328505
191	0xbb1c4349	-0.0023843816
192	0xbe168f0b	-0.14703004
193	0x3bcb329d	0.006201102
194	0x3f0d066f	0.5508794
195	0xbe0e1f27	-0.13879071
196	0xbc4aff98	-0.01239004
197	0x3e947ea3	0.29002866
198	0xbd9c9e0d	-0.07647333
199	0xbee5a49c	-0.4485215
200	0xbce037e8	-0.027370408
201	0x3cf6c7b2	0.030124519
202	0x3e64424d	0.22290917
203	0xbee942d6	-0.45558804
204	0x3f240624	0.6407187
205	0xbe866c91	-0.26254705
206	0x3f47a0aa	0.7797953
207	0xbcd730fb	-0.026268473
208	0x3e7b5fbe	0.24548241
209	0xbdb70a3b	-0.08937498
210	0xbc7f857e	-0.015595792
211	0x3d56b986	0.052423023
212	0xbd507a89	-0.05089811
213	0xbe88ef4f	-0.26745078
214	0x3f9b39f9	1.2127067
215	0xbe181e1f	-0.1485524
216	0x3ce921a7	0.02845843
217	0x3e04563e	0.12923524
218	0x3fa443a9	1.2833148
219	0x3f3b78c8	0.7323117
220	0x3d4ec793	0.050483298
221	0xbede0999	-0.43366697
222	0xbf431a60	-0.7621212
223	0xbfc36aab	-1.5266927
224	0x3e16fe1d	0.14745374
225	0x3c8033c9	0.015649693
226	0x3f77475a	0.9659325
227	0xbec3cf58	-0.38244128
228	0xbd93ffd3	-0.07226529
229	0x3f735cbe	0.9506339
230	0x3ae368d4	0.0017349967
231	0x3db1dd25	0.08684758
232	0x3f18f9bd	0.5975607
233	0x3b4c3609	0.0031160137
234	0x3a86135c	0.0010229158
235	0x3d019c57	0.031643238
236	0x3e1bcd81	0.15215112
237	0x3edcd896	0.43133992
238	0xbd82eefe	-0.063932404
239	0xbb1a7b86	-0.002357216
240	0xbdd8ece4	-0.10592058
241	0x3ebd00a7	0.3691456
242	0xbe80fc34	-0.25192416
243	0x3eb394bd	0.35074416
244	0x3e0c8369	0.13722004
245	0xbe839ae9	-0.25704125
246	0xbc26af15	-0.010173579
247	0xbf0f226d	-0.55911905
248	0xbe7ebeef	-0.24877523
249	0xbfac9a25	-1.3484541
250	0xbd11e980	-0.035623074
251	0x3fb4d2ba	1.4126809
252	0xbc2ebefa	-0.01066565
253	0x3f3f2a20	0.7467365
254	0x3e2aeabb	0.16691105
255	0xbed19a07	-0.40937826

l3.bias f4 [4]
0	0xbdba005a	-0.09082098
1	0x3e06098a	0.13089576
2	0x3f538155	0.8261922
3	0x3ea1de7a	0.3161505
