pretrained/td3_actor200ep.pth (torch, 528351 bytes, 6 tensors)

l1.weight f4 [400, 24]
00000000: d60a 953c 98dd 1abe 7227 5f3d 8e48 d33d
00000010: 10bc fdbd 9571 a23d a729 5bbd a447 1e3d
00000020: 33c9 913c cfbc 2e3c 3a0b 463d 4785 ec3c
00000030: aed0 823d e9cc b0bd 7b42 c4bd 796a cbbd
00000040: b65f 52bd 2173 a7bd dba9 c73d c9bd 8ebc
00000050: 90ba 20be b520 51be 1da1 ecbd 4994 31be
00000060: 3260 3fbc 3d2a c3bd bc37 c23e 8fe9 2f3f
00000070: 9352 21bf 0a5c 2b3e f502 853e 7c23 c33e
00000080: cf10 993e e570 abbe 5e69 66bd 5f50 33be
00000090: ae1c a4be ee23 cfbe 4d2c 243d 9701 12be
000000a0: 07c0 1b3e 0b2e 0abe 46e9 d43d a193 3cbd
000000b0: d14d 1dbe 1ce1 743d 0790 2cbe 7d67 98bd
000000c0: 4c2d 90be 7a30 1f3d b87f 02bf ff9c 98be
000000d0: 06ea 7c3d a41f 4a3e 0593 963e 257d fa3e
000000e0: 35e1 d83e 5e0f ac3d 8e72 8e3e 621e 39bc
000000f0: f290 53be 4db8 8c3e d670 f53b dcc4 853d
00000100: 6933 6bbe 73ab 18be 7a66 f5bd 929f b0bd
00000110: 7675 8abe d416 84be f6d4 56bc ed6c 30be
00000120: 8843 233e 2dbc acbd 8987 5c3e 9e0b 373f
00000130: 235f 0cbd 89db c03d ce0d 083d 3bcc e33e
00000140: e3dc 89bf 0cd2 e9be 6a4a d1bc 3281 76be
00000150: 9f1f 043e 8bdb ef3d e8f5 02be 2f93 4f3e
00000160: 4a0d c53c 6f56 2d3e 0a68 f63d a0fd c9bd
00000170: 9a3e c13d 4d53 c63d e788 03be 576b 20be
00000180: 437d 213f d164 c83f 95fe 58bf 021e 81bf
00000190: 7aab 113e 32d3 38be e56e 30be 8d7d 9a3d
000001a0: e866 81be 32f4 e7be 982c 473d 5146 713e
000001b0: 34f8 483e c0ee 5d3e 3766 10be 442a 5cbd
000001c0: 9182 45bc 5d40 aebe 36e1 36be 9542 4ebd
000001d0: bf6e 5dbd 6e8b 9abd f6f2 a3be c22e a9be
000001e0: ccd4 99be 21e3 bdbe df00 b3bd 1384 b93e
000001f0: 2f4e 06bf f5d3 87be ecca 2fbe 2784 20bf
00000200: 169e eabd b016 bf3e 3e84 833e ba33 a33e
00000210: ecae a33e f198 123f 3044 48bd b880 fdbc
00000220: beeb 3ebd ae2c fbbd da15 a1be dd0c b1be
00000230: e5e7 88be faed 49be 2b35 b8be bcd6 93bd
00000240: 4285 573d b23d a7be 43ac 9abe 5699 80be
00000250: c9b8 08be c793 ec3c eee8 73bd 1542 3d3f
00000260: 54aa ea3d 4b67 b5bc 9ab8 c83c 7463 a1be
00000270: fae0 8a3d e4de 22bf 6bcd 323e 28df 18bd
00000280: 8fb9 fcbd f725 db3d 423a bf3d fd72 233e
00000290: db74 9cbd 3e1c 943d 30ce 7abd 877c e0bd
000002a0: dbec a13e 83eb 1e3f 357c d2bd 83ac 0abf
000002b0: 56e0 a4bd f10b 35be d2db 7fbe a999 1a3f
000002c0: d825 0e3f 97b7 52bc 7d8f a93d 58a1 ca3e
000002d0: 94bc c9bd ee06 c83a 6354 fdbe f91e b8be
000002e0: 9d27 e7be 4e13 08be 8a76 febe a2c2 f5be
000002f0: d326 a8be 8ee4 ddbe 52a1 88be 68b4 53be
00000300: ecae 66be 2a11 af3f c864 9dbf 7f3a 23bf
00000310: d780 d03d af0e 053e e18b 6fbe cda6 2cbf
00000320: d1e9 68be 14c4 bc3e 88aa 173d ec54 393d
00000330: dfa5 5ebe ac87 413e f1aa 6fbe 86e2 65be
00000340: 933c 3bbe 832e f8bd 3bcc 3cbe b02c 1ebe
00000350: 2301 ccbe 0ace 85bd 8212 b8bc 3d0c 88bc
00000360: 0b29 4bbe 0fd6 f7be eee1 8bbe a5bc 5f3f
00000370: d9e5 e0be 4fbe 073f 84f8 ffbe e6fd 9fbe
00000380: 5690 283e da19 743e ea01 78bc 52d2 9bbe
00000390: 40ae b53d d4c3 dd3e 0b22 25be ab9f 8ebe
000003a0: e8a5 a53d 2d94 27be 8d25 51be 9e2a 91bd
000003b0: 9dcf 87be 1f8a 103c 6629 83bb 4e83 7abe
000003c0: 07f2 b0be bed9 f6be f7af 123f c458 6e3c
000003d0: 6056 3dbe 5c17 cebe 7e18 c8be d5e5 493c
000003e0: fcb3 8abe b929 c3bb 8de3 6fbe 9584 2b3e
000003f0: b4c4 dabd 3970 19bf f369 90bd 93c7 49be
0.018193644 -0.15123594 0.054480977 0.10316573 -0.12389386 0.0793182 -0.05350652 0.03864254
0.017796135 0.010665133 0.04835055 0.028872145 0.06387459 -0.086328335 -0.09582993 -0.099324174
-0.05136081 -0.08176256 0.09749194 -0.017424481 -0.15696168 -0.20422633 -0.115541674 -0.17341723
-0.01168065 -0.09529541 0.37933147 0.6871576 -0.63016623 0.16734329 0.2597882 0.3811301
0.29895636 -0.3348457 -0.05625283 -0.17511128 -0.3205313 -0.404571 0.04008131 -0.14258419
0.15209971 -0.13494126 0.10396056 -0.046039227 -0.15361716 0.059784994 -0.16851817 -0.07441614
-0.2815956 0.03886459 -0.50976133 -0.2980728 0.06174662 0.19738632 0.29409042 0.48923603
0.4235932 0.084013686 0.27821773 -0.011298748 -0.20660761 0.2748436 0.0074902577 0.065316886
-0.2296883 -0.14909153 -0.119824365 -0.086241856 -0.2704274 -0.25798666 -0.013112297 -0.17229052
0.1594373 -0.08434329 0.21536078 0.715021 -0.034270417 0.09416873 0.03321629 0.44491753
-1.0770534 -0.45668066 -0.025548179 -0.24072722 0.12902687 0.117117964 -0.12789118 0.2027099
0.024054188 0.16927503 0.120315626 -0.09862828 0.094357684 0.09683857 -0.12845193 -0.15665947
0.6308176 1.5655767 -0.8476346 -1.0087283 0.1422557 -0.18049315 -0.17229803 0.07543478
-0.25273824 -0.45303494 0.048626512 0.2356198 0.19625932 0.21673107 -0.14101492 -0.053751245
-0.012055055 -0.3403348 -0.17859349 -0.050356466 -0.054060694 -0.07546125 -0.32021302 -0.33043486
-0.30045164 -0.37087348 -0.087404005 0.36233577 -0.5246305 -0.26528898 -0.17167252 -0.6270165
-0.11455934 0.37321997 0.2568683 0.31875402 0.31969392 0.5726462 -0.048893154 -0.030945167
-0.04661154 -0.12264381 -0.31461984 -0.34580126 -0.2673942 -0.19719687 -0.35978064 -0.07218692
0.05261732 -0.32664257 -0.3020955 -0.25116986 -0.1335174 0.02887906 -0.05954831 0.7392896
0.11458269 -0.02214398 0.024502087 -0.3152119 0.06781192 -0.63621354 0.17461173 -0.037322193
-0.1234008 0.107006006 0.09337284 0.15961833 -0.07639476 0.07231949 -0.061231792 -0.10961252
0.3162602 0.6207811 -0.10277597 -0.5416948 -0.08050601 -0.17680337 -0.24986199 0.60390717
0.55526495 -0.012861154 0.08279321 0.3957622 -0.098504215 0.0015260854 -0.49478444 -0.3596113
-0.4514741 -0.13288614 -0.49699813 -0.48000056 -0.3284212 -0.43338436 -0.26685578 -0.20674288
-0.22527665 1.3677113 -1.2296381 -0.6376113 0.10180824 0.12993883 -0.23393203 -0.6744202
-0.22745444 0.36868346 0.037027866 0.045247003 -0.21742962 0.18899411 -0.23405053 -0.22449693
-0.18284826 -0.121182464 -0.18437283 -0.15446734 -0.39844617 -0.065334395 -0.022469763 -0.016607398
-0.19839875 -0.484055 -0.27320808 0.87397224 -0.4392536 0.5302476 -0.4999429 -0.31248397
0.1646131 0.23837987 -0.015137175 -0.304339 0.08871126 0.43313468 -0.16126268 -0.27856192
0.08088285 -0.16365118 -0.2042448 -0.07088207 -0.26525584 0.008821993 -0.004002738 -0.24464151
-0.34559652 -0.48213 0.5729975 0.014547531 -0.1848998 -0.40252197 -0.39081186 0.012322863
-0.27090442 -0.0059559015 -0.23426647 0.16749795 -0.106820494 -0.59936863 -0.07051458 -0.19705038

l1.bias f4 [400]
00000000: ebad 4abe 5b5a a0be e793 bfbd e19c b2bd
00000010: ae5f 4abe e078 15be 429d 75be 9f34 5e3e
00000020: fc4f febd 93eb e8bd 0b30 563e 9c34 04be
00000030: 5c90 08bd 9d14 583e 101b 28bd 61e3 7eb8
00000040: 5b31 773e 6fa0 1bbd 0d33 3bbe 3b60 a5be
00000050: f5ee 5e3e 2647 c53b aa85 d53c 0a91 56be
00000060: b20a 52bd bc2e 27bd 5690 19be e193 673d
00000070: 439c 983d d7dc 8bbe e655 073e e421 5c3e
00000080: a1f8 3c3d 7bbc a63d dd4f 3cbd 8fd2 d03c
00000090: f0e4 59be 7128 93bc 8e93 56be 1105 38be
000000a0: 690e 88be 14e0 2cbc d6c4 d13d aded 06be
000000b0: 7d0a dbbc 0d45 353d a5c1 1cbe 69f0 81be
000000c0: 7cf8 a73e 271f 443d b5d7 34bd f6ac 61be
000000d0: a35a d4bd 82d1 093c 6f60 5dbe 7c6f 81be
000000e0: 2e5c bfbd af4e 93bd ec3d debd a6d7 d8bd
000000f0: dfa3 4dbe 0f74 3abd 8844 00bd 2d25 5cbd
00000100: f2b7 4abe 14e2 8abe 87e1 47bb c90e 5abe
00000110: 1d31 b3be 7c72 1cbe c17b aebc 30ec e23d
00000120: b26e 8b3d 50e2 e83d 2eff 5dbe 8c1a 9abd
00000130: 5d9b 893e 0ae4 c83d abef 763e 1ab6 2abd
00000140: f4ac f5bd e71e a5bd 0b17 a93d 768d 813d
00000150: 2cc6 22be 8795 fcbd ac6e 87be c68e 5cbe
00000160: daf7 8bbe 9e9a 4ebe c200 02be 5b88 a63e
00000170: 7bdd 50be a485 ec3b 2634 32be 24eb 3fbe
00000180: 31bc 513e 1613 0dbe 0c87 73be 473d 96bd
00000190: 6184 0dbe f8b9 693e 50f6 963c ba5c b2bd
000001a0: 5063 3b3e 72c3 f4bd 5955 8bbe fd74 abbe
000001b0: d13a aebd 5a30 88bc a489 2a3d 1586 d93b
000001c0: 0d7d 0bbe 3597 5dbd 573f 3abd ef38 8ebe
000001d0: e044 40be 051c 8cbe faea 5e3e b19a 133e
000001e0: 5155 73be 2b68 25be 1ef1 a53a e4d6 533d
000001f0: c859 173d 26bc 2bbe 5834 11be 1c83 0abe
00000200: de55 093c 5efc 58be 9487 3b3d 24ea d6bd
00000210: b2cc 9cbd 5382 86bd 2bb2 46bd 3203 7fbd
00000220: daa5 80be e1c5 91bd f010 0cbe 7b45 af3d
00000230: b0c2 5fbe 3c06 49be 3a1c 1abe 90de 29be
00000240: 5fee 073e 24fb 63be 6c57 bdbd 02a8 d93b
00000250: 93dc 22be 74f6 2f3d 4f52 15bd 0d7c 713e
00000260: 9595 ed3c f305 b3be 6a16 26be 332e 9fbd
00000270: 97eb c1bd 15a9 26be 910e fdbc 1f89 57be
00000280: 1be0 f33d f077 b33d bad6 83bc 0dbe 31be
00000290: 45fd 00be ddd2 0f3d f166 de3d 7db9 7ebe
000002a0: 6da4 85be 5aad 5c3e 4f18 c1be 3daf 27be
000002b0: f51d 36be cc02 39be dd81 28be 4e70 3a3d
000002c0: 2873 69be 7511 2abe f860 0c3e 174c babc
000002d0: c97d 123e 5b45 8b3d edbf adbe cf7d 2d3e
000002e0: e396 fcbd fe92 793e b22b 083e 0ca9 903c
000002f0: d538 0e3e 7f3d 83be 987a 983d 20e4 f8bd
00000300: ea2c 0dbd 798f 283e 2e08 babd 6e2e 66be
00000310: 0253 17be 40c3 2ebd 937e 19be 0308 5abd
00000320: 1b39 e5bd b23d 8ebe dd92 6dbe 8268 343d
00000330: a8cb 67be 3c49 4f3d f635 d93b df8c 753c
00000340: ba61 a2be 1b68 8bbe 2e66 83bd f68c 2e3e
00000350: 3a8b 87bd 547d 8fbe 3aa7 01be 4edf 7ebe
00000360: 5109 e63d 02f9 8b3b 0586 52be 0316 e23d
00000370: 5c33 42be 65ab 9fbe 5d7c b53d 8335 98bd
00000380: ea14 2bbe 6b4d 673e c0be 42be 5954 c8bd
00000390: f126 98bc 45cd 8f3e 3c9b 203d cdeb 9f3d
000003a0: 9427 60be 5755 28be b004 5d3e 47b1 14be
000003b0: 7392 a53c ea4f 5abd 6666 39be cd0c 25bc
000003c0: f173 91be 0340 61be 51f9 183e 48c5 0ebe
000003d0: 0c45 263e 8bb6 fc3c e243 da3d 1756 ff3d
000003e0: 7b5d 73be a74b 5ebe 0909 00be 0d73 883e
000003f0: 4e2d 7cbd 795b 76bd 50a9 d5bd d68c 133e
-0.19792907 -0.31318936 -0.09354382 -0.087213285 -0.19763061 -0.14596891 -0.2398577 0.21699761
-0.124175996 -0.11373057 0.20916764 -0.12910694 -0.033340797 0.21101613 -0.041041434 -6.0770082e-05
0.24139921 -0.0379948 -0.18281193 -0.3229998 0.21770842 0.0060204444 0.026064713 -0.20953766
-0.05127973 -0.040816054 -0.14996466 0.056537513 0.074516796 -0.27316925 0.13216361 0.21497303
0.04613555 0.081414185 -0.0459746 0.025491027 -0.21278739 -0.01796362 -0.20954725 -0.17970683
-0.26573494 -0.010551471 0.102426216 -0.13176604 -0.0267384 0.044255305 -0.15308245 -0.2537873
0.32806766 0.04788127 -0.044151027 -0.22038636 -0.1036885 0.008411767 -0.21618818 -0.25280368
-0.09343754 -0.07192742 -0.108516544 -0.10588007 -0.20082043 -0.04552084 -0.031315356 -0.05374639
-0.19796732 -0.2712561 -0.0030499415 -0.21294703 -0.34998408 -0.15278047 -0.021299245 0.110802054
0.06808223 0.11371291 -0.21679375 -0.07524595 0.26876345 0.0980912 0.24114864 -0.04167757
-0.11995879 -0.08062535 0.08256348 0.0632581 -0.15895909 -0.123332076 -0.26451623 -0.21538839
-0.27337533 -0.2017617 -0.12695602 0.32525906 -0.20396988 0.0072180796 -0.17402706 -0.18742043
0.20481946 -0.13776812 -0.23781985 -0.073359065 -0.1382003 0.22824848 0.018427998 -0.087090924
0.18299603 -0.11951341 -0.27213553 -0.33487692 -0.08507312 -0.016624618 0.04163517 0.0066382983
-0.13621922 -0.05409928 -0.04547056 -0.27777812 -0.18776274 -0.27365127 0.21769324 0.14414479
-0.23763014 -0.16153018 0.001266036 0.051718608 0.036950856 -0.16770992 -0.14180124 -0.13526577
0.008382289 -0.2119002 0.045783594 -0.104938775 -0.0765623 -0.06567826 -0.048509758 -0.062258907
-0.25126535 -0.071178205 -0.13678336 0.08558174 -0.21851611 -0.19631284 -0.1504983 -0.16588807
0.13274525 -0.22263771 -0.0924519 0.0066423425 -0.15904455 0.042959645 -0.03645545 0.23582478
0.02900199 -0.34965476 -0.16219488 -0.07772484 -0.09468763 -0.16275437 -0.030890735 -0.21048401
0.11907979 0.08763111 -0.0160936 -0.17357655 -0.12596615 0.035113204 0.10859478 -0.24875446
-0.2610201 0.21550503 -0.37713858 -0.16375442 -0.17784865 -0.18067473 -0.16455789 0.04551726
-0.22797835 -0.16608222 0.13708866 -0.02274136 0.14305796 0.06800338 -0.3393549 0.16942523
-0.12333467 0.2437248 0.13297918 0.017658733 0.13888867 -0.25632855 0.07445258 -0.121528864
-0.03446666 0.1646098 -0.090835914 -0.22478649 -0.14777759 -0.042666674 -0.1498969 -0.053230297
-0.11192533 -0.27781445 -0.23200555 0.04404498 -0.22636282 0.05060695 0.006628747 0.0149872
-0.31715184 -0.27227864 -0.064159736 0.1704596 -0.06618352 -0.28025305 -0.12661448 -0.24889871
0.11232246 0.0042716274 -0.20558937 0.11039355 -0.18964905 -0.3118545 0.08861611 -0.074320816
-0.16707197 0.22588126 -0.19018078 -0.09781713 -0.018573256 0.28086296 0.039210543 0.07808647
-0.21890098 -0.16438805 0.2158382 -0.14520751 0.020211434 -0.05329887 -0.18105468 -0.010073853
-0.2840877 -0.21997075 0.14938857 -0.13942444 0.16237277 0.030848762 0.10657479 0.12467592
-0.23766129 -0.21708547 -0.12503447 0.26650277 -0.061566643 -0.06014583 -0.104326844 0.14409193

l2.weight f4 [300, 400]
00000000: 7466 da3c 04a8 3cbd 29f3 bfbd d71f 443e
00000010: e176 483e 4eff 283e 26c6 433d 5945 713b
00000020: 4112 51be 3ae4 51ba 2c49 81be 5635 4b3d
00000030: ac85 ff3c b714 3bbe 0193 dbbe b9a8 85bd
00000040: b5c9 823e 8b5b 32bd ed81 c1bd 0e1d 53be
00000050: 3dc2 cebe 37a0 9d3e 3589 01be ccc9 233e
00000060: 25cf 34be 5613 d33d 10cf 9abe 2297 ffbc
00000070: 7b92 3f3e 419c 1cbf 7ae9 bd3e a289 e43d
00000080: fff6 4bbe 887b 2ebe 220f 27bd 5f13 f93e
00000090: 9dd9 3c3d b38b 73bd ff41 50be 1149 993d
000000a0: ae5f d2be eadf d93d ae9f d1bc 5aa7 dd3c
000000b0: 5fec 493c f50b 5a3e 4dc3 c5bd 33da 2a3e
000000c0: 64f4 313e 2607 8cbe ee8a 44bf 970f ecbb
000000d0: 13e5 69bc bb13 85bd 90f4 ecbd 5dcd a2bc
000000e0: 2cd1 063e 17a1 023d 9174 46be ce1b 0bbf
000000f0: ddc4 11be d5b5 303e 681f f7bd 6427 52be
00000100: 637d c1bd 2e2a 98bd 985b af3e babf 723c
00000110: 4e00 c93d 3163 783c 6811 943c ec78 033e
00000120: dc57 59bd f9b3 c5be 9be7 f63c da2d 1bbe
00000130: a565 a3bd a46f 713e 36ab 473e 5b34 0d3e
00000140: a464 e83d 87f7 e0bc 147f f83d bf79 b2be
00000150: cc0c 2cbc aeea 0bbe 85c0 1b3e 2296 c13b
00000160: d772 1d3d 5fbe d33d 135a 2fbe 820f 7f3e
00000170: da2a babb f1df 8bbe 9438 12be 0e12 00bf
00000180: 31d9 e8bd 33b8 9ebe 9d33 8b3c a7f4 833e
00000190: 5c44 f8bd 04b1 b53d 241f 2a3e a3be 93be
000001a0: a29f 9e3d 46f1 efbe 211d c9be 35ec 893b
000001b0: d293 383e 2268 96be f1b0 233d a725 e2bd
000001c0: 4a75 493e 16db 0b3e fccc 103e 213b 0cbe
000001d0: e350 973d 72b5 4ebe 2f55 01be 07ea c0be
000001e0: 7088 563e 3689 63bc ae62 6cbe 6931 023d
000001f0: fd0e 133e 4172 ac3e 4c40 e13d 414e 23bf
00000200: f44a 27bd a839 bc3b 85bb 95be bdd5 b2be
00000210: 6fe3 c4bd 1d18 903d ffd4 b9bd a5a4 d5bd
00000220: 9f9b 8abd 6bdb fbbc c58f 133b b09a 7d3e
00000230: 8031 53bd b00b 9bbc 7b00 3b3d 91d4 a13d
00000240: 7381 f23e 9500 fe3d 11a5 a53e e6ca b93e
00000250: 042c fc3d 1964 83bd 9b7d 66be 593c da3d
00000260: 1eea 0e3d 7baf 3bbd 1488 dabd 2122 5bbd
00000270: 14eb 94bd db78 01be 15f0 dd3c 1790 d0bc
00000280: 1546 033e c1d6 223e 28f1 0dbe 2625 863c
00000290: 01cc d5be 4cd8 34bd db91 2abe abb4 6fbd
000002a0: bf3b f8bd 8b4e 063c 0b4f 59bd 74f8 83be
000002b0: 0be9 09bd da6a 973e bacc 7cbe 7f24 b2be
000002c0: 30d5 0cbe b496 183e 98bb 2c3e 4fed 49be
000002d0: 9dfb a03c a99e b5be fecd 34be 8ea3 e93d
000002e0: dc62 543d ec09 9c3e 9890 43bd 71b5 88be
000002f0: 91a6 90bd c3f4 bbbe 4a5a ecbd fdd3 f1bd
00000300: bd28 6fbd e504 5dbe 203b 24bf f2a4 633e
00000310: c9c9 28bd a4ee e1be 0b43 0b3e 4c8a 093e
00000320: c6f6 91bd 1663 373b abc8 3fbd 8a17 f63e
00000330: 7f46 4abd a8fb 2f3e c24b 1bbe 44b5 023e
00000340: c78f 04bc 4341 2ebf c266 9e3c e21d 0e3e
00000350: a7e6 32be aa3a 19bf 8a38 37bd a2b6 aabd
00000360: 97ac 1bbd fa86 5abe e425 1a3e bce2 a1bc
00000370: ff73 123e 112d 1d3e c60c da3d 942c 2a3d
00000380: 9c8c 09bf 84df 443e 7144 d23d d81a 7d3e
00000390: 3259 343f ff1f 843e 4414 783e 20f8 4ebc
000003a0: d5f2 a6be 3d34 29be f518 3a3d c2bd 1cbe
000003b0: a159 c9bd 28cb 3fbd 0a43 a5bd ed24 e73b
000003c0: 96a3 8cbd 8482 8a3d a34e a6be 2ba1 fbbe
000003d0: 7684 63bf bada f63d 6195 783e 4cef b13d
000003e0: ca3b 12be e213 97bd b004 6fbe 821f 163d
000003f0: 1d72 16bf 082c b13d 7769 833d 8965 8e3e
0.026660182 -0.04605867 -0.09372551 0.19152771 0.19576599 0.16503641 0.04779639 0.0036815016
-0.2041712 -0.00080067257 -0.25251138 0.049611412 0.03119167 -0.18269621 -0.42885593 -0.06526322
0.25544515 -0.043544333 -0.094486095 -0.20616552 -0.40382567 0.30786297 -0.12649997 0.15994948
-0.17657144 0.103064224 -0.302361 -0.031199995 0.18708222 -0.61175925 0.3709219 0.11159064
-0.1991844 -0.17039311 -0.040785916 0.4864759 0.04610597 -0.0594594 -0.20337676 0.074846394
-0.41088623 0.10638411 -0.025588837 0.027057339 0.012324422 0.21293624 -0.09656391 0.16684799
0.17378384 -0.27349204 -0.7677449 -0.007204007 -0.014275807 -0.06497904 -0.11570084 -0.019873315
0.1316573 0.03189191 -0.19380404 -0.543393 -0.14235254 0.17256863 -0.12066537 -0.20522839
-0.09447744 -0.0742992 0.34249568 0.014816219 0.09814511 0.015160368 0.018074706 0.12839097
-0.053062305 -0.3861387 0.030139735 -0.1515421 -0.079783715 0.23577744 0.19498906 0.13789503
0.11347321 -0.02746178 0.12133613 -0.3485851 -0.010501098 -0.13663742 0.15210159 0.00590779
0.038439598 0.10339045 -0.17124204 0.2490826 -0.005681378 -0.2731929 -0.14279395 -0.5002755
-0.11369551 -0.30999908 0.016992385 0.25772592 -0.121224135 0.08871654 0.16613442 -0.28856382
0.07745291 -0.46863765 -0.39280036 0.0042090663 0.18025139 -0.29376322 0.039963666 -0.11042338
0.19673648 0.13657793 0.14140695 -0.13694431 0.07388475 -0.20186403 -0.12630151 -0.3767855
0.20950484 -0.013887694 -0.23084518 0.031785402 0.14361186 0.3368092 0.10998592 -0.6379128
-0.040842965 0.005744178 -0.2924463 -0.34928694 -0.09613692 0.07035849 -0.09073829 -0.10431794
-0.067679636 -0.030744275 0.0022516113 0.2476604 -0.05156088 -0.018926471 0.045654755 0.07901872
0.47364387 0.12402455 0.32352498 0.36287612 0.12313083 -0.064155765 -0.22508852 0.10656042
0.03489124 -0.045821648 -0.10670486 -0.053499345 -0.072714 -0.12643759 0.02709202 -0.025459332
0.12819703 0.15902235 -0.13861525 0.016375136 -0.41757205 -0.04415159 -0.16657202 -0.058521908
-0.12120771 0.008197437 -0.053053897 -0.25775492 -0.033669513 0.2957371 -0.24687472 -0.3479347
-0.137532 0.14901239 0.16868436 -0.19719432 0.019651229 -0.3547261 -0.17656705 0.11408149
0.051852092 0.3047632 -0.047745317 -0.2670093 -0.0706302 -0.36710176 -0.11540659 -0.11808012
-0.05838846 -0.21583898 -0.6415272 0.2223089 -0.041208062 -0.4412738 0.13599794 0.13431662
-0.071271464 0.0027982644 -0.04682223 0.48064834 -0.049383637 0.17185843 -0.15165618 0.1276446
-0.00809092 -0.6806833 0.019336108 0.13878587 -0.174708 -0.5985514 -0.044731654 -0.08335616
-0.03800639 -0.21340552 0.15053517 -0.019761436 0.14302061 0.15349223 0.106469676 0.04154642
-0.5373018 0.1922589 0.102669604 0.24717271 0.704486 0.2580566 0.2422648 -0.0126324
-0.3260714 -0.16523834 0.045433957 -0.15306762 -0.098315485 -0.046824604 -0.08069427 0.0070539624
-0.06867139 0.06763175 -0.3248187 -0.491464 -0.88873994 0.120534375 0.24275734 0.086882204
-0.1428062 -0.07376839 -0.23341632 0.036651142 -0.58767873 0.086509764 0.064166 0.2781184

l2.bias f4 [300]
00000000: b4a3 70bd 8277 c8bc 432b 21bd e55c 2c3e
00000010: 4ae3 98be 2e26 eabc 547e c83e faee e5bd
00000020: 5881 bcbd f594 5bbd e613 983d 89b5 e23d
00000030: 6901 60bd 45c6 973e 069a 59bd d7ee 7dbd
00000040: 5a6d 87bd d35b 6ebc 30a5 e0bc d782 17bc
00000050: 5949 a63d 46b5 ccbd 955f 31bd 7901 61bc
00000060: 7aef 9abd 7b3f e2bd 52a4 1e3c d081 3b3d
00000070: 977e 11be e171 18bd 5fcb 0bbe ceea 98bd
00000080: 9705 b7bd 689f ee3d f65d aa3e c060 aa3d
00000090: 583e 82bd e12d 89bd 4443 bbbd 8815 c5bd
000000a0: 43d3 f63d 64b3 5dbd babb 21bd 139c 18bd
000000b0: c43f 99be 343a a5bd 3d50 733d 5f50 343a
000000c0: 8152 c93c f6f0 b3bc 145a b6ba 433b 3cbe
000000d0: 0a6d 80bd 1f66 b23d 6c27 2bbd 74b1 99bd
000000e0: ec8b 213e 7564 e9bd ed8d acbc d8ed 80bd
000000f0: 4201 d9bd a759 05bd 4e64 92bc 4928 50be
00000100: bfe7 fa3d 16c9 8e3d c292 273d 6a1d 483e
00000110: ab7f c43d 14a9 93bd a644 8bbc ebea 08be
00000120: fdd0 97bc e9c9 0a3e 306f 94bd d3aa 7ebd
00000130: 9a57 acbb f1a4 4fbd 1216 c4bd 459e 003b
00000140: 6b5a 9c3b fb08 66bd a02c 33bd 0bfc 0fbd
00000150: 5091 783c 54e0 bb3d 25b0 8cbd 50bd 9c3d
00000160: 1721 1bbc c2a3 833d 0d87 e7bd 5eba 8c3c
00000170: c231 1fbd da01 b2bd 1811 09bd 65f4 903d
00000180: 5208 433d 0272 9abd e6ee cfbc 7e6b bdbd
00000190: ca45 96bd 8895 7abe 930a bbbc e425 1fbe
000001a0: 07e8 93bc 39e3 183d abd9 8dbc 8f17 e0bd
000001b0: d9bb a03c a314 8f3e 9900 403d 7343 cd3d
000001c0: 64a2 753c a991 32bd dea5 14bd 5a6c f3bc
000001d0: f2f0 6fbd b892 7ebd 134a 32be 91bb c93d
000001e0: a1b7 7bbe 0515 0d3e f285 0fbe f4f5 9e3d
000001f0: fd26 65bd 1728 0cbe 9fd7 b9bd cccf 8c3c
00000200: ad19 b63d 5f59 0d3b 979b 16bd 829b 87be
00000210: 92de 283e 302f 6dbd 5872 6e3c a55d bebd
00000220: 44fb b9bd 9e2d 87bd 4dff d5bc a02b 413d
00000230: 73db 6dbd 4418 423c de57 073e ea8a df3d
00000240: 50c6 923d c183 65bd aae1 e3bd 15bc 3f3d
00000250: 7a3c 193c 0cc0 e0bc a6d1 c2bd 88a9 a2be
00000260: b439 7d3b f565 bd3c 2247 4fbd 575d 42bd
00000270: d392 ac3e 1e28 0ebe e390 0c3e 3ae0 5c3b
00000280: 4ef3 fc3b 1a26 533d 534d 93be aff0 c6bd
00000290: efa1 75bd 8f65 aa3d 071b b3bd f350 aabd
000002a0: 1016 adbc dd02 b4bc f42e 9ebd 4cda c1bd
000002b0: 88db 9ebe e61b 89be 4cde 78bd a4a5 8ebc
000002c0: b14e 18bd 236a 85bd 93db dcbb ad97 c8bc
000002d0: d497 a1bd e69a d1bd 2270 6c3d 60f9 d23d
000002e0: bb39 e23e dbc0 ebbd 4e02 63be 86af 2f3e
000002f0: 8d7b 1ebe 21be 65bd 2530 d7bc c229 e1bc
00000300: 242e bc3c 600a b8bd 2455 613e e4b5 80bc
00000310: 7354 e6bd 16b4 5cbd 37e0 7cbd 3535 973d
00000320: 90b9 a8bc e542 9cbd 5ad0 f0bd 23d0 0fbe
00000330: 6729 30bd 5091 e1bd 25d6 8f3d 9e1f 59bc
00000340: 1ae4 42bd da82 9ebd 95b5 87bd 4ce8 b53b
00000350: fb00 efbd 4ce0 8d3e f273 adbe 903b 913e
00000360: 8f50 c5bd 2893 3abd 9581 5e3e 9f61 1f3e
00000370: eeb8 c63a e34a 53be 1449 f2bc 0310 64bc
00000380: 5fc8 d83a 2cf1 f33b 9c5e 433d 842d babe
00000390: dace cebd 3ebf eabd f720 37bc 97db 633d
000003a0: fe15 ce3d be57 ccbc 4329 93bd 88cd ccbd
000003b0: 4662 8dbe 04c5 d6bb 915f cdbd c634 fa3b
000003c0: 965c d6bd 0521 47bc 473e bebc b874 923d
000003d0: b076 083b 67e3 48be eedc 84bd dc90 b03d
000003e0: 7196 a73d 161c d93c 7354 18bd 3cd4 e13d
000003f0: fdd8 02bd 68ed 313d e764 0b3d 9c2b 00be
-0.05874987 -0.024471048 -0.0393479 0.16832311 -0.29860908 -0.028582659 0.3915888 -0.11227222
-0.09204358 -0.053608853 0.0742567 0.11069781 -0.054688845 0.29643455 -0.053125404 -0.061995354
-0.06612654 -0.01454826 -0.027422518 -0.009247503 0.08119459 -0.09995513 -0.043304045 -0.013733261
-0.07565208 -0.11047264 0.009682732 0.045778096 -0.14208446 -0.03721798 -0.13651799 -0.074666604
-0.08936613 0.11651498 0.33274812 0.08319235 -0.063595474 -0.06698204 -0.09143689 -0.096232474
0.12052014 -0.05412616 -0.03948567 -0.03725822 -0.29931462 -0.08067742 0.059402693 0.00068784313
0.024575474 -0.021965485 -0.0013912343 -0.18381982 -0.062707976 0.08710884 -0.041785643 -0.075045496
0.15776032 -0.11396114 -0.02106377 -0.06295365 -0.10595943 -0.032556202 -0.017870095 -0.20327868
0.12251233 0.06971948 0.040911444 0.1954247 0.09594663 -0.072099835 -0.017000508 -0.13370864
-0.01853227 0.13553585 -0.0724777 -0.06217463 -0.0052594664 -0.05069441 -0.09574522 0.0019625586
0.004771521 -0.05616091 -0.04374373 -0.035152476 0.015171364 0.091736466 -0.068695344 0.07653296
-0.009468338 0.06427719 -0.11305056 0.01717871 -0.038865812 -0.086917594 -0.033463567 0.070778646
0.047615357 -0.075412765 -0.02538247 -0.09249018 -0.0733753 -0.24471104 -0.02283219 -0.15541798
-0.018054975 0.03732607 -0.017315706 -0.109419934 0.019620823 0.27945432 0.04687557 0.100226305
0.01499233 -0.043595944 -0.036290996 -0.029714752 -0.058579393 -0.06215164 -0.1741107 0.098502286
-0.24581768 0.1377755 -0.1401594 0.077617556 -0.055945385 -0.13687168 -0.090743296 0.017188929
0.08891616 0.0021568162 -0.036769476 -0.2648583 0.16491154 -0.05790633 0.014553629 -0.09295205
-0.09081128 -0.06600498 -0.026122713 0.047160745 -0.05807061 0.011846606 0.13217112 0.10915168
0.07166731 -0.056033853 -0.111270264 0.04681023 0.009352798 -0.027435325 -0.095126435 -0.31769967
0.003863913 0.023119906 -0.050604947 -0.047452297 0.33705768 -0.13882491 0.13727145 0.0033702985
0.007719434 0.05155001 -0.2876993 -0.097138755 -0.059968885 0.08320152 -0.087453894 -0.08316221
-0.021128684 -0.021974022 -0.07723799 -0.09465465 -0.31026864 -0.26779097 -0.060758874 -0.017412968
-0.03718442 -0.065143846 -0.0067400425 -0.024486387 -0.07890287 -0.10234623 0.057724126 0.10301471
0.4418467 -0.11511394 -0.22168848 0.171568 -0.15476818 -0.056089524 -0.026268074 -0.027485732
0.02297122 -0.08986354 0.22005135 -0.015711732 -0.11246576 -0.05388268 -0.061737265 0.07383195
-0.020596296 -0.076299466 -0.1175849 -0.14044242 -0.043008234 -0.11014044 0.07023267 -0.013252167
-0.047580816 -0.07739802 -0.06626431 0.0055513736 -0.11670109 0.27710187 -0.33877522 0.28365755
-0.09634506 -0.045550495 0.21729119 0.15564583 0.0015161315 -0.20634036 -0.029575862 -0.013919833
0.0016539207 0.0074445214 0.04769765 -0.3636285 -0.100980476 -0.11462258 -0.011177293 0.05562934
0.100627884 -0.024944182 -0.071856044 -0.100001395 -0.2761404 -0.006554248 -0.100279935 0.0076356856
-0.10466878 -0.012153869 -0.023223056 0.071511686 0.0020822696 -0.19617997 -0.064874515 0.0862138
0.08182991 0.02650265 -0.037189912 0.110268086 -0.031945217 0.0434393 0.034031775 -0.12516636

l3.weight f4 [4, 300]
00000000: d057 843c db22 133d 9862 d0bd baa2 653d
00000010: c252 83be 624d 68bc 5ca3 103f c4ec 253c
00000020: 5fd1 003e 33af 443d 28fb dfbe 6bb0 3c3e
00000030: 02a3 5bbc 1d94 ee3e cff9 6f3d ed47 b53d
00000040: 2d64 823d 5941 c9be 415f b6be e430 843e
00000050: f66d 42be 3f3f b33b fdbd 96bc 6746 4c3c
00000060: 1614 203c d1c8 9d3c b1dd b6be da62 34bd
00000070: 0a9f b83e aa7f 2c3f 3c0b d4bd ce47 833c
00000080: 4283 463f a3f8 debc 2946 d73e 5051 22bf
00000090: a890 5b3e 95ef 5d3c c8c7 25bd f44a 9abe
000000a0: 3dad 05be 9093 eebc f720 04bf 0933 b83c
000000b0: fc05 243d 4f61 56bd b108 09bf af5d 293f
000000c0: 348f a4be 43de f6bd 06d2 a13c b589 673e
000000d0: c4c6 a7be 762c b93e 4527 823c d644 cabc
000000e0: 8e7c 74bf 3b6b 9bbb f160 da3a 177c d1bb
000000f0: 2c4c d43c 8627 353d f1a0 d2bc 0234 d43d
00000100: 4c3e 83be 9aa8 bebf 0cb5 e3bd ff02 e8bb
00000110: 4e0a c2be bd31 17bd f6bb 7a3b 629f 25bd
00000120: cd4d 893e 4e2a 8cbd 84d2 fbba 1d77 9f3d
00000130: 2510 5a3b 95e2 133d ea79 a53c 97d4 2c3d
00000140: 8a6b b0bc cad5 813c 6db4 b03c 05c0 4f3d
00000150: dcea 5a3d 61c9 bd3c f3ca 223f edc1 a73e
00000160: acc8 893f d1ce 0bbf 9e7d 02c0 a9d4 8f3d
00000170: a6f8 c6bc 369e e6be 6dac 94bd 7e5b d93e
00000180: fa0c 14bf 95d7 e6be c52a a53d 3dbe 043c
00000190: c2bc 9a3c cfdd c43e 29a6 fcbe 0608 ffbd
000001a0: 7763 45bf 5486 353d 34db 123c 88a9 b33e
000001b0: c0f4 513e f4c3 e0be e83a 13bf e34d b3bd
000001c0: 1d15 22ba d737 763b 216b 593c c9f7 1fbd
000001d0: 660a f5bc 95a1 273d 03b5 13bf 24a6 603c
000001e0: c934 743d a50e 443e 3366 a8be f6bd 55bd
000001f0: ecb1 dabd 3f44 973e 9c00 d03c ddf6 22be
00000200: fbbd 8fbe 115a 5c3f 38b0 0bbb 5250 013f
00000210: 490a 5d3e 86a5 383c 25c3 04bf c12b 803c
00000220: 9e24 91bd ca6b 29bc 7b32 04be 47fa c93e
00000230: 887f 8d3c 2440 b13d 16ee 91bf fab0 753f
00000240: 0077 4e3c 3b0f 99bc cc8b d6be f15c 0f3f
00000250: fd74 0cbc f456 ebbc 32c2 27bc c562 1dbd
00000260: 6bf3 f9bd fdf9 253f d66f 81bc e4cb a83c
00000270: f271 f0b9 308d 23be 7538 85be bc20 063d
00000280: 7412 3a3d d480 ebbe 1899 153f a07a e0bc
00000290: 636e 213d a68b 1fbd 10c3 bc3d e2db dcbb
000002a0: 982c d13b bc56 0e3e decd 913e 8dd7 013d
000002b0: 5148 8f3e 44fd 9abe 3c74 553d cbf5 2b3e
000002c0: 260d a73e d8ad 4fbd b5b8 e13e f31a 04be
000002d0: e8ee 70bb cff6 0c3d ef6d 753d e1f9 a4bf
000002e0: f1f5 3f3d 014e 20bf 582c b63d f798 9c3c
000002f0: 838c 353e 3cfd 8dbd 989b 813d f8a0 233d
00000300: a2b6 583d 9d32 cb3b 9321 c93e 9b30 8c3d
00000310: 98ff 4abc 523f 813e 0d9e 9cbd 8c09 6abf
00000320: e837 e0bc 5840 fb3c 45c5 9e3d d8ef f5be
00000330: 8045 053e ffd6 9a3e c380 f9be fb30 d7bc
00000340: 38ff 0a3f 3b0a b7bd 7e85 7fbc 86b9 563d
00000350: 897a 50bd ed5c a2bf 5c2d 543f bc54 a43d
00000360: a721 e93c e703 e23e 3cd0 273f 08fb a63e
00000370: ace5 61bf b9c0 003f ebac 46bf d0c2 8bbf
00000380: e51c 6f3d c933 803c 30bc f43d 28e3 453e
00000390: d3ff 93bd b324 703f ab50 7f3d 1c91 8c3e
000003a0: 19e7 993e 73a5 0b3d 5c13 863a 579c 013d
000003b0: 8cb2 90bd 29b5 90be feee 82bd 867b 1abb
000003c0: e4ec d8bd de3e f23e e2b2 c23c ed50 703e
000003d0: 5827 f7bd d14a 02bf 15af 26bc ca4a 413e
000003e0: 920d 653d ec28 c1bf fb08 0bbc 1e23 513f
000003f0: 2e82 5dbd 2895 fe3e 047f 293d ffb6 e6bd
0.016155154 0.035921913 -0.10175055 0.05606339 -0.25649077 -0.014178606 0.56499267 0.01012725
0.12579869 0.048018645 -0.43746305 0.18426673 -0.013405563 0.46597376 0.058587845 0.088516094
0.06366763 -0.3930767 -0.35619548 0.2581855 -0.1898726 0.005470186 -0.01840114 0.012467957
0.009770414 0.019260796 -0.35716012 -0.044039585 0.36058837 0.673823 -0.10353705 0.01602545
0.77544034 -0.027218169 0.42045715 -0.63405323 0.214419 0.01354589 -0.04047373 -0.3013531
-0.13054366 -0.029123098 -0.516128 0.022485273 0.04004477 -0.052338894 -0.5352889 0.66158575
-0.32140505 -0.12054112 0.019753467 0.22611125 -0.32768834 0.36166734 0.015887866 -0.024691027
-0.95502555 -0.0047430075 0.0016660971 -0.0063929665 0.025915228 0.044227146 -0.025711508 0.10361482
-0.25633466 -1.4895203 -0.11118516 -0.0070804353 -0.37898487 -0.03691267 0.0038259006 -0.040435202
0.2681717 -0.068440065 -0.0019212519 0.07786391 0.0033273783 0.036104757 0.020199735 0.04219493
-0.021535654 0.015849013 0.021570409 0.050720233 0.053446636 0.023167314 0.63590926 0.3276514
1.0764365 -0.5461245 -2.038917 0.070229836 -0.024288487 -0.4504258 -0.0725945 0.42452615
-0.578323 -0.4508635 0.08064798 0.008101997 0.018888835 0.38450477 -0.4934552 -0.12452702
-0.77104896 0.04431756 0.008963395 0.3509028 0.20503521 -0.438995 -0.5751176 -0.0875509
-0.00061829557 0.0037569904 0.01327017 -0.039054666 -0.029912185 0.04092558 -0.57698077 0.013711486
0.059620652 0.19146211 -0.32890472 -0.052183114 -0.10678467 0.29544255 0.025390916 -0.15914483
-0.2807463 0.8607493 -0.0021314751 0.50513184 0.21585955 0.011269933 -0.51860267 0.015645863
-0.07087062 -0.01034064 -0.12909882 0.3944876 0.017272726 0.08654812 -1.1400783 0.9597317
0.012601614 -0.01868402 -0.41903532 0.5600119 -0.008572814 -0.028727986 -0.010239171 -0.038424272
-0.122046314 0.64834577 -0.015800398 0.020605035 -0.00045861263 -0.15971828 -0.26019636 0.03274606
0.045427755 -0.45996726 0.5843673 -0.027402222 0.039411914 -0.03895154 0.09216893 -0.0067400793
0.00638349 0.13900274 0.28477377 0.031699706 0.2798486 -0.3027135 0.052112803 0.16792981
0.3262722 -0.0507029 0.44086233 -0.12900905 -0.0036763493 0.034415063 0.059919294 -1.2888757
0.046865407 -0.62619025 0.08895177 0.019115908 0.17729382 -0.06933066 0.06328505 0.039948434
0.052908547 0.006201102 0.39283428 0.06845208 -0.01239004 0.25243622 -0.07647333 -0.9142082
-0.027370408 0.03067033 0.0775247 -0.4803455 0.13014793 0.30242154 -0.4873105 -0.026268473
0.5429568 -0.08937498 -0.015595792 0.052423023 -0.05089811 -1.2684609 0.8288171 0.08023974
0.02845843 0.44143602 0.65552115 0.32613397 -0.88241076 0.5029407 -0.776076 -1.0918827
0.058377165 0.015649693 0.119499564 0.19324934 -0.07226529 0.93806 0.06233279 0.2745446
0.30059126 0.03409333 0.0010229158 0.031643238 -0.07065305 -0.28263214 -0.063932404 -0.002357216
-0.10592058 0.4731359 0.023766939 0.2346837 -0.12068051 -0.5089541 -0.010173579 0.18876186
0.055921145 -1.5090613 -0.008486028 0.8169421 -0.054079227 0.49723172 0.041380897 -0.112653725

l3.bias f4 [4]
00000000: b19d 2b3e 2b6e 33be 3897 643d 2ece ca3d
0.16759373 -0.17522494 0.055808276 0.09902607
