TD3/pretrained/td3_actor300ep.pth (torch, 528351 bytes, 6 tensors)

l1.weight f4 [400, 24]
0	0x3c950ad6	0.018193644
1	0xbe1add98	-0.15123594
2	0x3d5f2772	0.054480977
3	0x3dd3488e	0.10316573
4	0xbdfdbc10	-0.12389386
5	0x3da27195	0.0793182
6	0xbd5b29a7	-0.05350652
7	0x3d1e47a4	0.03864254
8	0x3c91c933	0.017796135
9	0x3c2ebccf	0.010665133
10	0x3d460b3a	0.04835055
11	0x3cec8547	0.028872145
12	0x3d82d0ae	0.06387459
13	0xbdb0cce9	-0.086328335
14	0xbdc4427b	-0.09582993
15	0xbdcb6a79	-0.099324174
16	0xbd525fb6	-0.05136081
17	0xbda77321	-0.08176256
18	0x3dc7a9db	0.09749194
19	0xbc8ebdc9	-0.017424481
20	0xbe20ba90	-0.15696168
21	0xbe5120b5	-0.20422633
22	0xbdeca11d	-0.115541674
23	0xbe319449	-0.17341723
24	0xbe273527	-0.1632887
25	0x3d8e1717	0.06937998
26	0x3f23fc7f	0.64057153
27	0x3f88f243	1.0698932
28	0xbf1fe4c2	-0.6245843
29	0x3e15f14d	0.1464283
30	0x3f0bf7c8	0.5467496
31	0x3e3a8e7a	0.18218413
32	0xbe3364bc	-0.17518896
33	0xbefa7705	-0.4891893
34	0x3b52646b	0.003210331
35	0xbeae4dd8	-0.34043765
36	0xbeab5ea7	-0.33470652
37	0xbef2368f	-0.4730725
38	0x3e38462c	0.17995518
39	0xbb1f7a17	-0.0024334246
40	0x3e95b22c	0.29237497
41	0x3bc7103c	0.0060749333
42	0x3e7b2129	0.24524368
43	0x3dc243dc	0.094855994
44	0xbc5ac41e	-0.013352422
45	0x3e4533ed	0.1925809
46	0xbe047d2d	-0.12938376
47	0xbda81157	-0.08206432
48	0xbea8e184	-0.32984555
49	0x3e19e5dc	0.1502909
50	0xbf6d0a3e	-0.92593753
51	0xbe754c12	-0.239548
52	0xbe0d937c	-0.13825792
53	0x3e6a3a54	0.22873813
54	0x3f0ee784	0.55822015
55	0x3eacee1b	0.3377541
56	0x3f329ff2	0.6977531
57	0x3dd58bb9	0.104270406
58	0x3ee45511	0.4459615
59	0xbe1f569f	-0.15560387
60	0xbeb95888	-0.36200356
61	0x3ef77607	0.48332235
62	0xbd65aee9	-0.05607501
63	0xba68d25a	-0.00088814425
64	0xbe98bec9	-0.29833058
65	0xbe611825	-0.21981867
66	0xbe44932f	-0.19196771
67	0xbe22d67c	-0.15902132
68	0xbeaeefc2	-0.34167296
69	0xbea6dd74	-0.3259083
70	0xbda31bde	-0.079642996
71	0xbe7d05d9	-0.24709262
72	0xbca55967	-0.020184232
73	0xbd9be7c0	-0.07612562
74	0x3e644b29	0.22294296
75	0x3f8646c1	1.0490342
76	0x3dd6e600	0.10493088
77	0x3f2e6a9a	0.6813141
78	0x3e062cb3	0.13102989
79	0x3f12bf01	0.573227
80	0xbfb7dae5	-1.4363676
81	0xbe7d7bcc	-0.24754256
82	0xbeb5c81a	-0.35504228
83	0xbecf6b1a	-0.405114
84	0x3f191688	0.59800005
85	0xbbd58b56	-0.0065168543
86	0xbe638209	-0.22217573
87	0x3dd82ad7	0.10555046
88	0xbd9de50e	-0.07709704
89	0x3d831ae8	0.06401616
90	0x3c48d3fb	0.012257571
91	0xbe5bbe9f	-0.21459435
92	0xbcd7ac3f	-0.02632725
93	0xbcc2286e	-0.023700919
94	0xbe5cad1d	-0.21550412
95	0xbe9120f0	-0.28345442
96	0x3f7ac061	0.97949797
97	0x40265fff	2.5996091
98	0xbfb05ce8	-1.3778353
99	0xbfb1558f	-1.3854235
100	0x3f57a573	0.8423683
101	0x3dd10884	0.10206702
102	0xbdab95dc	-0.08378193
103	0x3e41eae4	0.1893726
104	0x3d87e719	0.06635875
105	0xbf514c01	-0.817566
106	0xbd172539	-0.036900733
107	0xbe03f902	-0.12887958
108	0xbde8414f	-0.113405816
109	0x3e068a83	0.13138776
110	0xbe27b011	-0.16375758
111	0xbd9c1b25	-0.07622365
112	0xbd088c0a	-0.033336677
113	0xbeb83f08	-0.3598559
114	0xbe47900c	-0.19488543
115	0xbd7d9fa4	-0.061919823
116	0xbd740d10	-0.05958277
117	0xbda57691	-0.08079255
118	0xbea8e498	-0.32986903
119	0xbe90d5ef	-0.28288218
120	0xbf0f0b9b	-0.55877084
121	0xbf9d107a	-1.2270653
122	0x3ed43c57	0.41452286
123	0x3f283c69	0.6571718
124	0xbf4d42e3	-0.80180186
125	0xbed732b7	-0.4203088
126	0xbe8b3c1a	-0.2719429
127	0xbf2b8a0e	-0.6700753
128	0xbdda5d44	-0.1066232
129	0x3d2ae1fa	0.041719414
130	0x3e648b62	0.22318795
131	0x3e8dce7c	0.27696598
132	0x3edb0741	0.42778972
133	0x3f282a58	0.6568961
134	0xbc89924a	-0.016793389
135	0x3b091c86	0.0020921542
136	0xbc4a9d13	-0.012366551
137	0xbdb3ff61	-0.08788944
138	0xbe8fc0ea	-0.2807687
139	0xbe9f9de2	-0.31175143
140	0xbe705598	-0.23470151
141	0xbe2805dc	-0.16408485
142	0xbee3bfca	-0.4448226
143	0xbdf0affd	-0.11752317
144	0xbd830dd7	-0.06399124
145	0xbefbdc55	-0.49191537
146	0xbe45ee8b	-0.19329278
147	0xbe861005	-0.26184097
148	0xbd962e74	-0.07333079
149	0x3de83436	0.113380834
150	0xbe476043	-0.19470315
151	0x3f28bd08	0.6591344
152	0xbc689579	-0.014195793
153	0xbc3e5ffc	-0.011619564
154	0xbcccd980	-0.025006056
155	0xbe65986e	-0.22421429
156	0x3e321b69	0.17393269
157	0xbefd26f8	-0.49443793
158	0xbe1bda9c	-0.15220112
159	0xbeba5b47	-0.36397764
160	0xbee66608	-0.4499972
161	0xbe607f40	-0.21923542
162	0xbe6db8a0	-0.2321496
163	0xbe27d458	-0.16389596
164	0xbecb6a86	-0.39729708
165	0xbe7e116e	-0.24811336
166	0xbebe1a17	-0.3712928
167	0xbec710ec	-0.38880098
168	0x3f1490c3	0.5803339
169	0x3f25d58d	0.6477898
170	0x3e45b48c	0.19307154
171	0xbf63217d	-0.88722974
172	0xbde727c6	-0.11286883
173	0xbe07ee87	-0.13274585
174	0xbe03ec34	-0.12883073
175	0x3f6373fe	0.88848865
176	0x3f26e9d9	0.65200573
177	0x3e48ee48	0.19622147
178	0xbd9887ed	-0.07447801
179	0x3f3bb399	0.7332092
180	0xbe35fd5d	-0.17772432
181	0x3d417449	0.04723004
182	0xbf1be77e	-0.60900104
183	0xbef242b7	-0.47316524
184	0xbf1074b6	-0.56428087
185	0xbe7b2a4d	-0.24527855
186	0xbf1bc40f	-0.60846037
187	0xbf17276b	-0.5904452
188	0xbedfed18	-0.43735576
189	0xbf0a7d9f	-0.5409793
190	0xbebc073a	-0.36724263
191	0xbde5b422	-0.11215998
192	0xbebcfdd4	-0.36912405
193	0x3fcfdf3c	1.6240001
194	0xbff728b5	-1.9309298
195	0xbfc223b9	-1.5167152
196	0xbdae4c4f	-0.085106485
197	0xbe124ee6	-0.1428791
198	0xbe02442d	-0.1272132
199	0xbf3d9a5c	-0.7406366
200	0xbdb2e565	-0.0873516
201	0x3eb9da08	0.36299157
202	0xbd4278bd	-0.047478426
203	0x3e59c29e	0.21265647
204	0xbe21236c	-0.15736169
205	0x3e4c9bff	0.19981383
206	0xbe97be6c	-0.29637468
207	0xbe92d1ff	-0.2867584
208	0xbe7b393b	-0.2453355
209	0xbe3c722e	-0.18402931
210	0xbe7cf175	-0.24701484
211	0xbe5e068b	-0.21682183
212	0xbeeb9c5b	-0.46017727
213	0xbdfcc279	-0.1234178
214	0xbd451ee4	-0.048125163
215	0x3d65495e	0.05597817
216	0xbe702059	-0.2344984
217	0xbfa78660	-1.3087883
218	0x3df28723	0.118421815
219	0x3f7f1f45	0.9965709
220	0xbf44413a	-0.7666203
221	0x3f174d6a	0.591025
222	0xbf028c9c	-0.509958
223	0xbd4da85e	-0.050209396
224	0x3d283b28	0.04107204
225	0x3f1d5269	0.6145387
226	0xbedb011f	-0.42774293
227	0xbee8a240	-0.45436287
228	0x3d7ce079	0.06173751
229	0x3e9ffd9c	0.31248176
230	0xbe84ac29	-0.25912598
231	0xbebf5aab	-0.37373862
232	0xbc42f201	-0.011898519
233	0xbe8066cc	-0.25078428
234	0xbe8ff441	-0.28116038
235	0xbe086776	-0.13320717
236	0xbea16abd	-0.31526747
237	0xbd0ff934	-0.035149768
238	0xbc42829b	-0.011871959
239	0xbe6a3a0e	-0.22873709
240	0xbf1e9068	-0.61939096
241	0xbf32cf88	-0.6984792
242	0x3f9e2f37	1.2358159
243	0xbe459189	-0.19293799
244	0xbba56fa8	-0.005048711
245	0xbea47f4d	-0.32128373
246	0xbec07fa4	-0.37597382
247	0xbdaa53db	-0.083167754
248	0xbd0b7ffa	-0.034057595
249	0x3e06c137	0.13159643
250	0xbef6a12e	-0.48169845
251	0x3f1639ec	0.5868213
252	0xbb2d6070	-0.0026455186
253	0xbf22ecfd	-0.63642865
254	0xbe776f1e	-0.24163482
255	0xbebbda17	-0.36689827

l1.bias f4 [400]
0	0xbe4aadeb	-0.19792907
1	0xbea55b93	-0.32296428
2	0xbe1ea311	-0.15491892
3	0xbe68163b	-0.2266473
4	0xbe3af6ff	-0.18258284
5	0xbe3c8d48	-0.1841327
6	0xbf01d777	-0.507194
7	0x3ea7c9a2	0.3277102
8	0x3c50c143	0.01274139
9	0xbdb41808	-0.08793646
10	0x3e0fd0c3	0.1404448
11	0xbe04349c	-0.12910694
12	0xbd08905c	-0.033340797
13	0x3e989fca	0.2980941
14	0xbd3090f9	-0.043107007
15	0x3c5be7fc	0.013422009
16	0x3e6c605f	0.23083638
17	0xbd1ba06f	-0.0379948
18	0xbe597ad0	-0.21238256
19	0xbeb5a238	-0.35475326
20	0x3e2c9aae	0.1685588
21	0x3dfab66e	0.12241827
22	0x3cd585aa	0.026064713
23	0xbe913531	-0.28360894
24	0xbcd2d205	-0.02573491
25	0xbe3cd468	-0.18440402
26	0xbe05a111	-0.13049723
27	0x3dadcceb	0.084863506
28	0x3dbb2ab1	0.09139002
29	0xbeb3ffc8	-0.35156083
30	0x3dd4795c	0.1037471
31	0x3e1cdfb4	0.15319711
32	0x3dc023ea	0.0938185
33	0xbd37a955	-0.044839222
34	0xbd5d48e1	-0.05402458
35	0xbbd29b7f	-0.006427228
36	0xbea52f2b	-0.3226255
37	0xbdb561b3	-0.08856525
38	0xbea9664f	-0.33085868
39	0xbeb80284	-0.3593942
40	0xbe5fa10b	-0.21838777
41	0x3dc86abe	0.097859845
42	0x3e43dbe2	0.19126847
43	0xbe953b9b	-0.29147038
44	0x3d305de0	0.043058276
45	0xbd8220fa	-0.06353946
46	0xbde7f8f0	-0.11326778
47	0xbe153476	-0.14570794
48	0x3ee4b516	0.44669408
49	0x3e8e8415	0.27835146
50	0x3d2471fc	0.040147766
51	0xbe410089	-0.1884786
52	0xbdd9b153	-0.10629525
53	0xbd98d591	-0.074626096
54	0xbe94fd85	-0.2909967
55	0xbe816f7c	-0.25280368
56	0xbe14b49a	-0.14522019
57	0xbe8ea441	-0.2785969
58	0xbe1834c8	-0.14863884
59	0xbdbf4263	-0.09338834
60	0xbe1d92b0	-0.15387988
61	0x3d6f2900	0.05838871
62	0x3dc9ae6e	0.09847723
63	0x3d125dc4	0.035733953
64	0xbe5d50f9	-0.2161292
65	0xbec232a0	-0.3792925
66	0xbcddd773	-0.027080273
67	0xbe5a0ec9	-0.21294703
68	0xbec1dcee	-0.37863868
69	0xbe1c727c	-0.15278047
70	0xbcae7bc1	-0.021299245
71	0x3d655b3b	0.055995207
72	0xbd2f2833	-0.042762946
73	0x3e056428	0.13026488
74	0xbe5dff2e	-0.21679375
75	0xbdb5cfbb	-0.08877512
76	0x3e822c18	0.25424266
77	0x3d8b369a	0.06797524
78	0x3e7a71e7	0.24457513
79	0x3bcb6c21	0.0062079583
80	0xbd7a9dd0	-0.061185658
81	0xbde62225	-0.11236981
82	0x3c067d71	0.0082086185
83	0xbd17a185	-0.03701927
84	0xbe22c62c	-0.15895909
85	0xbe83e971	-0.2576404
86	0xbe927062	-0.28601366
87	0xbec8f2b5	-0.3924767
88	0xbeb1cb08	-0.34725213
89	0xbeb6dc2a	-0.35714847
90	0xbdd5feb1	-0.10448969
91	0x3eaa6f67	0.33288118
92	0xbe88bc0a	-0.26705962
93	0xbde03f49	-0.10949571
94	0xbe85dd00	-0.26145172
95	0xbec98a1b	-0.3936318
96	0x3e9744f6	0.295448
97	0xbcce0ddb	-0.025153091
98	0xbe73870c	-0.23781985
99	0xbe61b017	-0.22039829
100	0xbe429158	-0.19000757
101	0x3ec477d0	0.3837266
102	0x3d1d5df5	0.038419683
103	0xbe678133	-0.2260788
104	0x3eb85a92	0.360066
105	0xbe66d2fb	-0.2254142
106	0xbe92de26	-0.2868511
107	0xbeb8d3ae	-0.36099
108	0xbbc3832c	-0.0059665646
109	0xbcde333b	-0.027124038
110	0x3adacaad	0.0016692482
111	0xbd618843	-0.05506159
112	0xbdd036b2	-0.10166682
113	0xbe382055	-0.17981084
114	0xbd3a3f57	-0.04547056
115	0xbe61b3d8	-0.22041261
116	0xbe775916	-0.24155077
117	0xbecfac9e	-0.40561384
118	0x3e867860	0.26263714
119	0x3e022802	0.12710574
120	0xbe82a944	-0.25519764
121	0xbe25682b	-0.16153018
122	0xbdd1d891	-0.10246385
123	0x3d53d6e4	0.051718608
124	0x3db8d745	0.090254344
125	0xbe94b188	-0.29041696
126	0xbd20084b	-0.03907041
127	0x3d82fc79	0.063958116
128	0xbc084c9b	-0.008319045
129	0xbe58fc5e	-0.2119002
130	0x3d5a59b4	0.053308204
131	0xbe468027	-0.19384824
132	0xbcffc759	-0.031222986
133	0xbd868253	-0.06567826
134	0x3e025771	0.12728669
135	0xbe115596	-0.14192805
136	0xbecefccc	-0.40427244
137	0xbd885896	-0.066575214
138	0xbe0c10f0	-0.13678336
139	0x3e1b4b9c	0.15165561
140	0xbe70230b	-0.23450868
141	0xbe49063c	-0.19631284
142	0xbe1a1c3a	-0.1504983
143	0xbe8dbe83	-0.2768441
144	0x3e964e15	0.29356447
145	0xbe11a83f	-0.14224337
146	0xbdc9c6d5	-0.09852377
147	0x3e2a3d29	0.16624893
148	0xbe181c39	-0.14854516
149	0x3def7ba2	0.11693503
150	0xbdc135e1	-0.09434105
151	0x3e45bfd4	0.19311458
152	0xbdb27318	-0.08713359
153	0xbed5d270	-0.41762114
154	0xbe4c821c	-0.19971508
155	0xbcb33b7d	-0.021878952
156	0xbdc1eb97	-0.09468763
157	0xbe9400dd	-0.2890691
158	0xbe045a4b	-0.12925069
159	0xbe814467	-0.252475
160	0x3e7e3c4b	0.24827687
161	0x3e5fffd4	0.21874934
162	0xbdf31ad2	-0.1187035
163	0xbe31be0d	-0.17357655
164	0xbebb9eb0	-0.36644506
165	0x3c959301	0.018258573
166	0x3e4f961f	0.2027211
167	0xbebf27f7	-0.37335178
168	0xbea71571	-0.32633546
169	0x3e8c5791	0.27410558
170	0xbeb24db3	-0.34824905
171	0xbe4dfd50	-0.20116162
172	0xbe3e66ec	-0.18593949
173	0xbdc94082	-0.09826757
174	0xbe79a23e	-0.24378297
175	0x3d4f6d97	0.050641622
176	0xbed686bd	-0.41899672
177	0xbe95f622	-0.29289347
178	0x3e3ff0b3	0.18744163
179	0xbe421f0c	-0.18957156
180	0x3e4cb532	0.19990996
181	0x3e10bf58	0.14135492
182	0xbeea295c	-0.4573468
183	0x3e0971c5	0.13422306
184	0xbdfd9885	-0.123826064
185	0x3e66da17	0.22544132
186	0x3e2db596	0.16963801
187	0x3b868baf	0.004106007
188	0x3e83a0a2	0.2570849
189	0xbee2c9fa	-0.4429472
190	0x3d5aa3cd	0.05337887
191	0xbd96a130	-0.07354963
192	0xbdf746cc	-0.1207405
193	0x3e2ce42d	0.16883917
194	0xbd90174a	-0.07035692
195	0xbf0b36e2	-0.5438062
196	0xbdb177d8	-0.086654365
197	0xbd8a6e0d	-0.06759272
198	0xbe8b4673	-0.27202186
199	0xbcd021fd	-0.025406832
200	0xbd1888a4	-0.037239686
201	0xbec12c66	-0.37729186
202	0xbe6d92dd	-0.23200555
203	0x3da5b96d	0.08092008
204	0xbe67cba8	-0.22636282
205	0x3b7b8196	0.00383768
206	0xbe436533	-0.19081573
207	0xbe1159f1	-0.14194466
208	0xbef11ea5	-0.47093692
209	0xbeefc7eb	-0.46832213
210	0xbd83662e	-0.064159736
211	0x3e049943	0.1294909
212	0xbe26aa54	-0.16275913
213	0xbecb05e5	-0.39652935
214	0xba51f120	-0.0008008648
215	0xbe7edf4e	-0.24889871
216	0x3d9b96f1	0.07597149
217	0xbd9c0fdf	-0.07620215
218	0xbe1dbd15	-0.1540416
219	0x3d2d02ec	0.042239115
220	0xbe51fbb7	-0.20506178
221	0xbec2b84c	-0.38031232
222	0x3db5caae	0.08876549
223	0xbe48197f	-0.19540976
224	0xbe110ff6	-0.14166245
225	0x3e969a48	0.29414582
226	0xbe49ae0b	-0.19695298
227	0xbddd007c	-0.10791108
228	0xbc4afedf	-0.012389868
229	0x3ebc9a83	0.36836633
230	0x3e00b071	0.12567307
231	0x3de11fdb	0.10992404
232	0xbeb3115e	-0.34974188
233	0xbe0288ba	-0.1274747
234	0x3e87104b	0.26379618
235	0xbe050f66	-0.12994155
236	0xbd8aef9c	-0.06783983
237	0xbdd58835	-0.1042637
238	0xbe86714a	-0.26258308
239	0xbe051987	-0.12998019
240	0xbe92f2f6	-0.2870099
241	0xbe614003	-0.21997075
242	0xbc86c698	-0.016452119
243	0xbd9c195a	-0.07622023
244	0x3dac1b7a	0.08403678
245	0x3e4e05ba	0.20119372
246	0x3d3eb1aa	0.046556152
247	0x3dc52eea	0.09628089
248	0xbe89ee9d	-0.2693986
249	0xbe5e4ba7	-0.21708547
250	0xbd8307a2	-0.0639794
251	0x3ef3dbf2	0.47628742
252	0xbe34422f	-0.17603372
253	0xbd765b79	-0.06014583
254	0xbe2068c8	-0.15664971
255	0x3e544cb2	0.20732382

l2.weight f4 [300, 400]
0	0x3cda6674	0.026660182
1	0xbdedf820	-0.11619592
2	0x3f01f072	0.50757515
3	0x3ee8c5fc	0.4546355
4	0x3e2a6de1	0.16643478
5	0x3dee6147	0.11639648
6	0x3d90fe0a	0.07079704
7	0x3da835bc	0.08213374
8	0x3f38a650	0.7212877
9	0x3ef1c973	0.47224006
10	0xbec835c3	-0.39103517
11	0x3d4b3556	0.049611412
12	0x3cff85ac	0.03119167
13	0xbd24ae4c	-0.040205285
14	0xbe8feea6	-0.28111762
15	0xbe2fcb86	-0.17167482
16	0x3eb7e722	0.35918528
17	0xbd325b8b	-0.043544333
18	0xbdabebdd	-0.08394597
19	0xbe531d0e	-0.20616552
20	0xbeb6ded0	-0.35716867
21	0x3f0ccfba	0.55004466
22	0xbe018935	-0.12649997
23	0xbcf95231	-0.0304347
24	0xbeb94cbd	-0.3619136
25	0xbdc77e61	-0.09740902
26	0xbe993f6b	-0.29931197
27	0x3e536181	0.20642664
28	0x3ea257ba	0.31707555
29	0xbeb8370b	-0.35979494
30	0x3e32d8dc	0.17465538
31	0x3e80023b	0.25001702
32	0xbe85ac04	-0.261078
33	0xbf1c27b5	-0.6099809
34	0xbe8befcf	-0.27331397
35	0x3ede64ee	0.43436378
36	0xbf0675fe	-0.5252379
37	0xbf0024f2	-0.50056374
38	0xbe86d7d1	-0.2633653
39	0xbdae7e24	-0.08520153
40	0xbf2f8caa	-0.6857401
41	0x3f10863d	0.5645483
42	0xbdac2aab	-0.08406576
43	0x3ecb8704	0.39751446
44	0xbea8bcb5	-0.32956472
45	0x3ea7754f	0.32706687
46	0xbeb71c07	-0.3576357
47	0x3f7729a6	0.96547925
48	0x3c11c90e	0.008898033
49	0xbe35c0c4	-0.17749316
50	0xbf94e8b5	-1.1633517
51	0xbf2bbf9a	-0.67089236
52	0xbe8a3bdc	-0.26998794
53	0xbcb5ad0d	-0.022177244
54	0xbd4e3eee	-0.050352983
55	0xbca2cd5d	-0.019873315
56	0xbf292e56	-0.6608633
57	0x3e22e439	0.15907373
58	0xbf06bfd7	-0.52636474
59	0xbf11af5a	-0.5690819
60	0xbf368ee5	-0.7131179
61	0x3e6ff504	0.2343331
62	0xbd8108f6	-0.06300537
63	0xbe3e0337	-0.18555914
64	0xbeeb99f5	-0.46015897
65	0xbe4f83e5	-0.20265158
66	0xbe972a83	-0.2952462
67	0x3c72bfba	0.014816219
68	0xbe9ed726	-0.3102352
69	0x3c786331	0.015160368
70	0x3c941168	0.018074706
71	0x3da09260	0.07840419
72	0xbe9bf987	-0.30463812
73	0x3a905256	0.0011010866
74	0x3cf6e79b	0.030139735
75	0x3e9de8f6	0.30841798
76	0x3e4ce6de	0.20009944
77	0x3e94078b	0.28912005
78	0x3d806dab	0.062709175
79	0x3e459334	0.19294435
80	0x3e548ee8	0.2075764
81	0xbce0f787	-0.02746178
82	0x3ea8f679	0.33000544
83	0xbf25f900	-0.6483307
84	0xbc2c0ccc	-0.010501098
85	0xbdd99ee2	-0.106260076
86	0xbd6cb467	-0.057789233
87	0xbde66878	-0.112503946
88	0x3e17c583	0.14821438
89	0xbc241309	-0.010014304
90	0xbe3c4b9e	-0.1838822
91	0x3ec45895	0.38348833
92	0x3e59b5fb	0.21260826
93	0xbd9be67a	-0.07612319
94	0xbe4daf70	-0.20086455
95	0xbf489311	-0.78349406
96	0xbda1b6a4	-0.07896164
97	0xbe6cd2c5	-0.23127277
98	0x3c8b339d	0.016992385
99	0x3e808386	0.25100344
100	0xbd5dc98f	-0.0541473
101	0x3dc76a73	0.097371005
102	0xbecb977a	-0.39764005
103	0xbf54b63f	-0.83090585
104	0x3ee6fc33	0.45114288
105	0xbf124edf	-0.571516
106	0xbe728a19	-0.23685493
107	0xbeb8286c	-0.3596834
108	0x3cbae8c7	0.022816075
109	0xbedc6ac1	-0.43050197
110	0x3e23b699	0.15987624
111	0xbc201a84	-0.009771947
112	0x3e0b528a	0.13605705
113	0x3e7104c6	0.23536977
114	0x3e10ccfc	0.14140695
115	0x3d35bc00	0.044368744
116	0x3e61e091	0.22058322
117	0xbf4fd5ca	-0.8118559
118	0xbef2bde1	-0.4741049
119	0xbf81fcd6	-1.0155284
120	0xbe8c2369	-0.27370766
121	0xbc638936	-0.013887694
122	0xbcc1d77f	-0.023662327
123	0x3d023169	0.031785402
124	0x3e5a64fa	0.21327582
125	0x3f2129b9	0.6295429
126	0xbe5c26af	-0.21499132
127	0xbf1bba66	-0.60831296
128	0x3e4cde0a	0.20006576
129	0x3bbc39a8	0.005744178
130	0xbe047aa0	-0.12937403
131	0xbeca93b4	-0.39565814
132	0xbe5ca8ce	-0.21548769
133	0x3d90181d	0.07035849
134	0xbee9606e	-0.45581383
135	0xbe3edf50	-0.18639874
136	0xbed8bcf7	-0.4233167
137	0x3e28cec7	0.1648513
138	0x3b138fc5	0.0022516113
139	0x3e241e43	0.16027169
140	0xbea08a74	-0.3135563
141	0xbc9b0bb0	-0.018926471
142	0x3d3b007b	0.045654755
143	0xbe002544	-0.12514216
144	0x3d9df2b9	0.07712311
145	0xbf09ceef	-0.5383138
146	0x3f1cc6e6	0.61240995
147	0x3eec1ea8	0.4611714
148	0xbc9dfddf	-0.019286094
149	0xbf2f13bc	-0.6838949
150	0xbf4b1780	-0.79332733
151	0x3d2aa61f	0.04166233
152	0x3e4bd92d	0.19907065
153	0xbf133300	-0.57499695
154	0xbeb5f948	-0.3554175
155	0x3d63b754	0.055594757
156	0xbd94eb14	-0.072714
157	0x3eebe963	0.46076497
158	0x3c61defd	0.013786075
159	0xbcce958b	-0.025217792
160	0x3ef7d92e	0.48407882
161	0x3f13f2b9	0.5779224
162	0xbd0adac8	-0.033900052
163	0x3c862526	0.016375136
164	0xbf1d8448	-0.6152997
165	0x3e975d2b	0.2956327
166	0x3e9a01c4	0.30079472
167	0x3f04f2dc	0.51933074
168	0xbf015395	-0.5051816
169	0x3e1493f6	0.14509568
170	0xbe625cc7	-0.22105704
171	0x3e02658f	0.12734054
172	0xbe4ae926	-0.19815502
173	0x3e356de8	0.17717707
174	0xbee7664f	-0.45195243
175	0xbf02188a	-0.50818694
176	0xbeb44a0c	-0.35212743
177	0xbdc4123b	-0.0957379
178	0x3cc1672c	0.023608766
179	0xbf0c5179	-0.5481182
180	0xba237208	-0.00062349485
181	0xbed5d48c	-0.41763723
182	0x3e8270b2	0.25476605
183	0x3e3a0ea6	0.1816965
184	0xbca1266b	-0.01967164
185	0x3f1630da	0.5866829
186	0x3d43e03e	0.047821276
187	0xbee7f2d8	-0.45302463
188	0x3d406810	0.04697424
189	0xbf205544	-0.62630105
190	0xbf1b27bf	-0.6060752
191	0x3cc48acb	0.023991963
192	0xbe1fbfa8	-0.15600455
193	0xbf0c2660	-0.54746056
194	0xbf98e4d8	-1.1944838
195	0x3d994014	0.07482925
196	0xbe45c476	-0.19313225
197	0xbea931c4	-0.3304578
198	0xbdd96283	-0.10614493
199	0xbdd387fc	-0.10328671
200	0x3efa545e	0.48892492
201	0xbe3cc215	-0.18433411
202	0xbd3fc8ab	-0.04682223
203	0x3f03d163	0.51491374
204	0xbd4a467f	-0.049383637
205	0xbd2cca76	-0.04218527
206	0x3ec79ab8	0.3898523
207	0x3ecc6cf8	0.39926887
208	0x3df920d1	0.12164462
209	0xbf8c3550	-1.095377
210	0x3c9e66c2	0.019336108
211	0x3c89ef6c	0.016837798
212	0xbf03bebe	-0.51462924
213	0xbf800ba6	-1.0003555
214	0x3db8e01c	0.090271205
215	0xbdaab6a2	-0.08335616
216	0xbea65400	-0.32485962
217	0xbba8b90b	-0.005149012
218	0x3ebd03df	0.36917016
219	0x3d1849b3	0.03717966
220	0x3e2ce3c8	0.16883767
221	0x3d846bbd	0.06465862
222	0x3e9713df	0.29507348
223	0x3e1ccbed	0.15312167
224	0xbf770c1e	-0.96502864
225	0x3cc70ebb	0.024299016
226	0x3d93f4d7	0.07224434
227	0x3eb5a8d9	0.35480383
228	0x3e9c20aa	0.3049367
229	0x3e2bd6cb	0.16781156
230	0x3ea5e776	0.32403153
231	0xbd6b0654	-0.05737908
232	0xbefd0128	-0.49414945
233	0x3e38b3ce	0.1803734
234	0x3e8f60ed	0.28003636
235	0x3e05010c	0.1298868
236	0xbc8e4529	-0.017366963
237	0xbe4846a4	-0.19558197
238	0xbe8262a4	-0.25465882
239	0x3e5c4b38	0.21513069
240	0x3ea0e931	0.3142791
241	0x3d8a8284	0.06763175
242	0xbf0672f0	-0.5251913
243	0xbf85e03e	-1.0459058
244	0xbf1d4435	-0.614322
245	0x3e4c8fdf	0.19976757
246	0x3dee41e2	0.1163366
247	0xbeb240cf	-0.3481507
248	0xbe123bca	-0.1428062
249	0xbd9713e2	-0.07376839
250	0xbf1c6ca8	-0.61103296
251	0x3ed75da9	0.42063645
252	0xbfbc446e	-1.4708383
253	0x3db12c08	0.086509764
254	0xbcef9745	-0.029246936
255	0x3e50b402	0.20381168

l2.bias f4 [300]
0	0xbf0a4bfa	-0.5402218
1	0xbcc87782	-0.024471048
2	0xbe7b0d1d	-0.24516721
3	0x3cd5ec0b	0.02611353
4	0xbef609cc	-0.4805435
5	0xbcea262e	-0.028582659
6	0x3f04efd3	0.5192844
7	0xbde5eefa	-0.11227222
8	0x3d50ceaf	0.05097836
9	0xbd5b94f5	-0.053608853
10	0x3e2ccdfd	0.16875453
11	0x3e52b5bc	0.20577139
12	0xbd600169	-0.054688845
13	0x3eb9aab4	0.3626305
14	0xbd599a06	-0.053125404
15	0x3e112541	0.14174367
16	0xbd876d5a	-0.06612654
17	0x3de3fa6a	0.11131747
18	0x3c087d5a	0.008330667
19	0x3da5ebf4	0.08101645
20	0xbd8533fd	-0.065040566
21	0xbe836872	-0.25665623
22	0xbd82b7b0	-0.06382692
23	0xbd3a55c3	-0.045491945
24	0xbdbd6157	-0.09247082
25	0xbde23f7b	-0.11047264
26	0x3c36281d	0.011117962
27	0xbec243f9	-0.37942484
28	0xbf0d331d	-0.5515612
29	0x3eb2ce35	0.34922948
30	0xbe8da6de	-0.27666372
31	0xbd98eace	-0.074666604
32	0xbdaa4c3f	-0.08315324
33	0x3d9030ed	0.07040582
34	0x3f09cba5	0.5382636
35	0xbd7c48a1	-0.0615927
36	0xbe7769fa	-0.2416152
37	0xbd892de1	-0.06698204
38	0x3d8c50a0	0.068513155
39	0x3c1900cd	0.00933857
40	0x3eb58f45	0.35460868
41	0xbd5db364	-0.05412616
42	0xbe91bd85	-0.28464904
43	0xbd189c13	-0.03725822
44	0xbefec9a6	-0.4976322
45	0xbda53a34	-0.08067742
46	0x3eb35838	0.35028243
47	0x3e99981d	0.29998866
48	0xb9088a57	-0.00013021506
49	0x3e489c57	0.19590889
50	0xbd9cc539	-0.07654805
51	0xbe7a2024	-0.24426323
52	0xbb606014	-0.0034236955
53	0x3e3004a9	0.17189278
54	0xbd2b276c	-0.041785643
55	0xbd99b174	-0.075045496
56	0x3eb4990d	0.35273018
57	0x3d9dfd05	0.07714275
58	0xbd5f0834	-0.054451182
59	0xbd9bd502	-0.076089874
60	0xbdd90142	-0.10595943
61	0xbd0559a7	-0.032556202
62	0xbcf45530	-0.029825777
63	0xbe665b86	-0.22495851
64	0x3e2d455c	0.1692099
65	0xbd943164	-0.07235983
66	0x3d411aba	0.04714463
67	0x3e70f26b	0.23529975
68	0x3e4c246d	0.1993577
69	0xbdd484a6	-0.10376863
70	0xbc8b44a6	-0.017000508
71	0xbe0751bb	-0.13214771
72	0x3ecbc9d5	0.39802423
73	0x3d68a5af	0.056798633
74	0xbd946f30	-0.0724777
75	0xbd9b16f6	-0.07572739
76	0xbd16b561	-0.03679407
77	0xbdaa391b	-0.08311673
78	0xbdc41612	-0.09574522
79	0xbc9bee5d	-0.019034559
80	0xbd72c64f	-0.059271153
81	0xbd6608fb	-0.05616091
82	0xbd332ca0	-0.04374373
83	0xbd0ffc0b	-0.035152476
84	0x3c789150	0.015171364
85	0x3cf92fc2	0.03041828
86	0x3e00ce03	0.12578587
87	0x3c3de2d8	0.011589728
88	0xbea73e1a	-0.32664567
89	0x3e448d15	0.19194444
90	0xbe9d83fd	-0.30764762
91	0x3eb3cd26	0.35117453
92	0xbd9083fc	-0.07056424
93	0xbdaf6767	-0.08564644
94	0xbe2a2d08	-0.1661874
95	0x3ea9d227	0.33168146
96	0x3e2d67ef	0.16934179
97	0x3c874975	0.01651452
98	0xbcd1cf2d	-0.025611484
99	0xbdbd6b7e	-0.09249018
100	0xbd9645ca	-0.0733753
101	0xbeddf88f	-0.43353698
102	0xbdf1bb2a	-0.11803277
103	0xbd030b0e	-0.031992964
104	0xbd62ff5d	-0.055419315
105	0xbe990c56	-0.29892224
106	0xbc8dd9ab	-0.017315706
107	0xbed2f6e9	-0.41204002
108	0xbe733193	-0.2374938
109	0x3db5fe46	0.088863894
110	0x3e0b8745	0.1362582
111	0x3e5adfb6	0.21374401
112	0x3c75a264	0.01499233
113	0xbd3291a9	-0.043595944
114	0xbd14a5de	-0.036290996
115	0xbd7b66f4	-0.06137748
116	0xbd6ff0f2	-0.058579393
117	0xbd7e92b8	-0.06215164
118	0xbe558678	-0.20852077
119	0xbe33f8b9	-0.17575349
120	0xbe954397	-0.2915313
121	0x3e6a19b5	0.22861369
122	0x3e0b311c	0.13592952
123	0x3ea2ef99	0.31823424
124	0x3d61e1b7	0.0551469
125	0xbe0c2817	-0.13687168
126	0xbdcef38f	-0.10105049
127	0x3d56aa7b	0.052408677
128	0xbe32207f	-0.17395209
129	0x3ef04ead	0.46935025
130	0xbd169b97	-0.036769476
131	0xbebd3c0b	-0.36959872
132	0xbdade75c	-0.08491394
133	0xbdb7498d	-0.089495756
134	0xbd2c02a6	-0.041994713
135	0xbe9af1cc	-0.302626
136	0xbdb9fb44	-0.09081128
137	0xbd872d9e	-0.06600498
138	0xbdc21284	-0.09476188
139	0x3d1d7b80	0.038447857
140	0x3d957f51	0.07299674
141	0x3c568a5a	0.013094509
142	0x3e449ecf	0.19201206
143	0xbd866a6b	-0.06563266
144	0xbd08d98e	-0.0334106
145	0xbd9543d0	-0.07288325
146	0xbe8d2f5a	-0.2757519
147	0xbdaa3bbf	-0.08312177
148	0xbcb6939c	-0.022287183
149	0xbd7277a3	-0.059196126
150	0xbdc2d1a6	-0.095126435
151	0xbe68e1bc	-0.22742361
152	0x3ecd7b45	0.4013311
153	0x3e3d0671	0.18459488
154	0xbd4f4722	-0.050604947
155	0xbda234d7	-0.07920235
156	0x3ea4d8bb	0.32196602
157	0xbe8f0164	-0.27930748
158	0xbc986ee4	-0.018607564
159	0x3b5ce03a	0.0033702985
160	0x3bfcf34e	0.007719434
161	0xbd0f17a8	-0.03493467
162	0xbf02f825	-0.5115989
163	0xbdc6f0af	-0.097138755
164	0xbdba14d5	-0.09086005
165	0x3ea18a1d	0.31550685
166	0xbedab01c	-0.42712486
167	0xbdaa50f3	-0.08316221
168	0xbcad1610	-0.021128684
169	0x3df7280e	0.12068187
170	0xbe67ec35	-0.226487
171	0xbdc1da4c	-0.09465465
172	0xbdd3c7ce	-0.10340844
173	0xbeead2dc	-0.45863998
174	0xbd78de4c	-0.060758874
175	0x3c859095	0.016304294
176	0xbd75a048	-0.05996731
177	0xbd856a23	-0.065143846
178	0x3e95af4a	0.29235297
179	0xbea6c24d	-0.32570115
180	0xbda197d4	-0.07890287
181	0xbdd19ae6	-0.10234623
182	0x3e05a89a	0.13052598
183	0xbd3e7cac	-0.046505615
184	0x3eae49bb	0.34040627
185	0xbe4ec297	-0.20191418
186	0xbe4fac7f	-0.20280646
187	0x3e7f12d6	0.24909529
188	0x3d3478e8	0.044060618
189	0xbea2a345	-0.3176519
190	0xbcd73025	-0.026268074
191	0x3d36b273	0.044603776
192	0xbe082e37	-0.1329888
193	0xbdb80a60	-0.08986354
194	0x3ebad1e3	0.36488256
195	0xbcc0404c	-0.02346816
196	0xbde65473	-0.11246576
197	0xbe8c2baf	-0.27377078
198	0xbd7ce037	-0.061737265
199	0x3d7c0d37	0.06153604
200	0xbca8b990	-0.020596296
201	0xbdd286e5	-0.10279635
202	0xbe80735e	-0.25088018
203	0xbbcbd647	-0.006220612
204	0xbe127435	-0.14302142
205	0xbe8c6360	-0.27419567
206	0x3e7f2971	0.24918152
207	0xbc591f9e	-0.013252167
208	0xbe4425e8	-0.19155085
209	0xbd9e82da	-0.07739802
210	0xbd87b595	-0.06626431
211	0x3bb5e84c	0.0055513736
212	0xbdef00fb	-0.11670109
213	0x3db1b6a1	0.08677412
214	0xbf4e0b5b	-0.8048608
215	0x3e09efc5	0.13470371
216	0xbdc5508f	-0.09634506
217	0x3d86ba84	0.06578544
218	0x3ed40cbf	0.41415974
219	0x3c0a7349	0.008450338
220	0x3dbfe7a3	0.09370353
221	0xbe4346b6	-0.19069943
222	0x3ce1f5a3	0.027582949
223	0xbe0af0d9	-0.13568439
224	0xbdcc8b62	-0.09987523
225	0x3bf3f12c	0.0074445214
226	0x3d1bcb11	0.038035456
227	0xbf273751	-0.6531878
228	0xbdceceda	-0.100980476
229	0xbe26d369	-0.16291584
230	0xbd55cdf6	-0.052198373
231	0x3ea9c98f	0.3316159
232	0xbe9380e1	-0.28809264
233	0xbd66f1a5	-0.056382794
234	0xbd932943	-0.071856044
235	0xbdcccd88	-0.100001395
236	0xbe8876c0	-0.266531
237	0xbdae7c71	-0.08519829
238	0xbdcd5f91	-0.100279935
239	0x3bfa34c6	0.0076356856
240	0xbdd65c96	-0.10466878
241	0xbe8b288b	-0.2717937
242	0xbcbe3e47	-0.023223056
243	0x3e9652e9	0.2936013
244	0x3dc54bea	0.0963362
245	0xbe58619a	-0.21130982
246	0xbd84dcee	-0.064874515
247	0x3d81f4e6	0.06345539
248	0x3e2ea830	0.17056346
249	0xbe14b675	-0.14522727
250	0xba10bd7b	-0.0005521399
251	0x3ebed524	0.37271988
252	0xbd59b102	-0.053147323
253	0x3ecad3d4	0.39614737
254	0x3e528f48	0.2056247
255	0xbe64abc5	-0.2233115

l3.weight f4 [4, 300]
0	0x3e50acdc	0.2037844
1	0x3d1322db	0.035921913
2	0xbe31f3c4	-0.17378145
3	0x3e880ecd	0.26573792
4	0xbeac2e16	-0.3362891
5	0xbc684d62	-0.014178606
6	0x3f7a140c	0.9768684
7	0x3c25ecc4	0.01012725
8	0x3f551a1d	0.8324297
9	0x3d44af33	0.048018645
10	0xbf39ea61	-0.7262326
11	0xbe301169	-0.17194141
12	0xbc5ba302	-0.013405563
13	0x3f33f36d	0.70293313
14	0x3d6ff9cf	0.058587845
15	0x3c4a268d	0.012338293
16	0x3d82642d	0.06366763
17	0xbd93dac9	-0.07219464
18	0xbf697e26	-0.9120811
19	0x3f941c2e	1.15711
20	0xbf1b3eb1	-0.60642534
21	0x3e32b595	0.1745208
22	0xbd78526e	-0.060625486
23	0xbc9db9bf	-0.01925361
24	0x3d72a17d	0.05923604
25	0x3c9dc8d1	0.019260796
26	0xbec14518	-0.37748027
27	0xbe4f9ce7	-0.20274697
28	0x3e70b5eb	0.23506896
29	0x3fa15268	1.2603273
30	0x3d8729f3	0.06599798
31	0x3c8347ce	0.01602545
32	0x3f6fe3d3	0.9370701
33	0xbeaf73f2	-0.34268147
34	0x3fca118b	1.5786604
35	0xbf841a34	-1.0320497
36	0xbe38f987	-0.18063937
37	0x3c5def95	0.01354589
38	0x3f224cca	0.6339842
39	0xbc0bd6a9	-0.008535066
40	0xbd8574ae	-0.065163955
41	0xbcee9390	-0.029123098
42	0xbda9a467	-0.082833104
43	0x3cb83309	0.022485273
44	0x3e0dc81f	0.13845871
45	0xbd56614f	-0.052338894
46	0xbe8e77a6	-0.2782566
47	0x3f96f76e	1.179426
48	0xbef18185	-0.47169128
49	0xbe49aa4f	-0.19693874
50	0x3cd56f60	0.026054084
51	0xbc3db01e	-0.011577634
52	0xbe95d9df	-0.29267785
53	0x3fa42b49	1.282571
54	0x3c822745	0.015887866
55	0xbcca44d6	-0.024691027
56	0xbf938b03	-1.1526798
57	0xbee6aed7	-0.45055267
58	0xbb510aa5	-0.0031897214
59	0xbbe42689	-0.0069626016
60	0x3cd44c2c	0.025915228
61	0x3d352786	0.044227146
62	0xbd1bd947	-0.03804901
63	0x3e68ac3d	0.22721954
64	0x3e890e2f	0.26768634
65	0xbfb86733	-1.4406494
66	0x3f0e3492	0.55548966
67	0x3f1dd286	0.6164936
68	0xbedb5228	-0.42836118
69	0xbbbfc80b	-0.0058527044
70	0x3b7abbf6	0.0038259006
71	0x3d0777d4	0.03307326
72	0x3f426eec	0.75950503
73	0xbd994b12	-0.07485022
74	0xbafbd284	-0.0019212519
75	0x3d7a7096	0.061142527
76	0xbce3f1b0	-0.027825207
77	0x3c8f2766	0.017474841
78	0x3ca579ea	0.020199735
79	0x3c06bd7f	0.00822389
80	0xbe868a2d	-0.26277295
81	0x3c81d5ca	0.015849013
82	0x3cb0b46d	0.021570409
83	0x3d4fc005	0.050720233
84	0x3d5aeadc	0.053446636
85	0x3ebaeeb3	0.36510238
86	0x3f74ac1a	0.95575106
87	0x3f4aa23b	0.79153794
88	0x3f9b1e5e	1.2118642
89	0xbe04dcca	-0.1297485
90	0xc01eecb4	-2.4831972
91	0x3ece8f08	0.403435
92	0x3bdc834a	0.006729518
93	0xbed7c737	-0.42144176
94	0x3d3ee71e	0.04660713
95	0x3f49a8eb	0.78773373
96	0xbf28d42a	-0.65948737
97	0xbf1baebb	-0.6081349
98	0x3d226fdf	0.03965747
99	0x3c04be3d	0.008101997
100	0x3c9abcc2	0.018888835
101	0x3e309798	0.17245328
102	0xbedf6fb4	-0.4363991
103	0xbe2f2eb4	-0.1710766
104	0xbebbdc2c	-0.36691415
105	0x3e35a6cf	0.17739414
106	0x3c12db34	0.008963395
107	0x3efe60bd	0.4968318
108	0x3ea26cc2	0.317236
109	0xbf76f65e	-0.96469676
110	0x3e00995a	0.12558499
111	0xbede1153	-0.43372592
112	0xba22151d	-0.00061829557
113	0x3b7637d7	0.0037569904
114	0x3c596b21	0.01327017
115	0xbc13a7e4	-0.009012196
116	0xbcf50a66	-0.029912185
117	0x3d27a195	0.04092558
118	0xbed357a7	-0.4127781
119	0xbdb72ac0	-0.08943701
120	0x3dcc222f	0.099674575
121	0x3e2a2fb2	0.16619757
122	0x3c940620	0.018069327
123	0xbe17cebb	-0.14824955
124	0x3fd9f7bc	1.7028728
125	0x3e97443f	0.29544255
126	0x3cf62319	0.030046033
127	0xbe797820	-0.2436223
128	0xbe61c3fb	-0.22047417
129	0x3ef7adfb	0.48374924
130	0xbb0bb038	-0.0021314751
131	0x3e884459	0.26614645
132	0x3f515636	0.8177217
133	0x3d2cc1eb	0.042177122
134	0xbea103da	-0.3144825
135	0x3e4f973f	0.2027254
136	0xbd91249e	-0.07087062
137	0xbc296bca	-0.01034064
138	0xbd10378d	-0.035209227
139	0x3db8be77	0.09020703
140	0xbd780c89	-0.06055883
141	0xbef9de1e	-0.48802274
142	0xbf99f5fe	-1.2028196
143	0x3faee2cf	1.3662966
144	0xbe29b4dc	-0.16572899
145	0x3bec256d	0.00720661
146	0xbe377424	-0.17915398
147	0x3f4658eb	0.7747943
148	0x3cb51648	0.022105351
149	0x3b458df4	0.0030144425
150	0xbc27c232	-0.010239171
151	0xbf1c21ce	-0.6098908
152	0x3e59f4de	0.21284816
153	0x3f7a207d	0.97705823
154	0xbc816fd6	-0.015800398
155	0x3ced56b4	0.028972007
156	0xbe263bf8	-0.16233814
157	0x3cb8e00f	0.022567777
158	0xbdcb973a	-0.099409536
159	0x3d0620bc	0.03274606
160	0x3d3a1274	0.045427755
161	0xbf277b9d	-0.65422994
162	0x3eb9ffb8	0.3632791
163	0xbce07aa0	-0.027402222
164	0x3cb61187	0.022225155
165	0xbe242551	-0.1602986
166	0x3ed17845	0.4091207
167	0xbbdcdbe2	-0.0067400793
168	0x3bd12c98	0.00638349
169	0xbdcf690d	-0.10127459
170	0x3b221a44	0.0024734894
171	0x3d01d78d	0.031699706
172	0x3ecb0582	0.3965264
173	0xbf1c9e21	-0.61178786
174	0x3d55743c	0.052112803
175	0x3f8a9949	1.0828029
176	0xbe17940c	-0.14802569
177	0xbd4fadd8	-0.0507029
178	0x3d817c02	0.06322481
179	0x3d9735df	0.07383322
180	0xbb70eee8	-0.0036763493
181	0x3d0cf6cf	0.034415063
182	0x3fa84b97	1.3148068
183	0xbf875d2c	-1.0575309
184	0xbd842404	-0.06452182
185	0xbf15f2ee	-0.58573806
186	0xbd7b367d	-0.06133126
187	0x3e864185	0.26221862
188	0xbefe7828	-0.49701047
189	0xbecb7116	-0.39734715
190	0x3d819b98	0.06328505
191	0xbd57e2c0	-0.05270648
192	0x3efb94ee	0.49137062
193	0x3bcb329d	0.006201102
194	0x3f0d5e53	0.5522205
195	0xbe0e1f27	-0.13879071
196	0xbc4aff98	-0.01239004
197	0x3e05d820	0.13070726
198	0xbd9c9e0d	-0.07647333
199	0xbf302284	-0.68802667
200	0xbce037e8	-0.027370408
201	0x3cf6c7b2	0.030124519
202	0x3e64424d	0.22290917
203	0xbdee8727	-0.11646872
204	0x3e6c0bf8	0.2305144
205	0x3e67e1eb	0.22644775
206	0xbeba076e	-0.36333793
207	0xbcd730fb	-0.026268473
208	0x3e53d750	0.20687604
209	0xbdb70a3b	-0.08937498
210	0xbc7f857e	-0.015595792
211	0x3d56b986	0.052423023
212	0xbd507a89	-0.05089811
213	0xbfa6bc4f	-1.3026217
214	0x3fae3ff3	1.3613266
215	0x3d0bb666	0.034109496
216	0x3ce921a7	0.02845843
217	0x3e8d7f6c	0.27636278
218	0x3fba894a	1.4573147
219	0x3ec5a2d7	0.386008
220	0xbf490ef0	-0.7853842
221	0x3cb918bc	0.022594802
222	0xbf51733a	-0.81816447
223	0xbf7d7ba6	-0.990168
224	0x3db27c8d	0.087151624
225	0x3c8033c9	0.015649693
226	0x3dce3d0a	0.10070236
227	0x3e0d2317	0.13782917
228	0xbd93ffd3	-0.07226529
229	0x3f735cbe	0.9506339
230	0x3ae368d4	0.0017349967
231	0x3f06bef6	0.52635133
232	0x3f100016	0.5625013
233	0x3b4c3609	0.0031160137
234	0x3a86135c	0.0010229158
235	0x3d019c57	0.031643238
236	0xbdc25b6f	-0.09490096
237	0xbdfb27d2	-0.122634545
238	0xbd82eefe	-0.063932404
239	0xbb1a7b86	-0.002357216
240	0xbdd8ece4	-0.10592058
241	0x3f307d70	0.689414
242	0x3cc2b2e2	0.023766939
243	0x3ec57753	0.385676
244	0x3d8e307e	0.06942843
245	0xbe977b0a	-0.2958606
246	0xbc26af15	-0.010173579
247	0xbe81a4ca	-0.25321037
248	0x3e81ee13	0.2537695
249	0xbfac9a25	-1.3484541
250	0xbe4f8317	-0.2026485
251	0x3fcf1356	1.6177776
252	0xbd5d7522	-0.054066785
253	0x3e19719d	0.14984746
254	0xbcf661e8	-0.030075982
255	0xbef7cd77	-0.48398945

l3.bias f4 [4]
0	0x3dfd4ae2	0.123677984
1	0xbe1e373c	-0.15450758
2	0x3d4eacfb	0.050457936
3	0x3d183ba9	0.03716627
